models/model_B4_2_3000_totmad_br_2.ckpt (torch_old, 304422 bytes, 143 tensors)

conv1.weight f4 [20, 1, 19]
0	0x3e7e36e9	0.24825634
1	0x3ddbb03e	0.10726975
2	0xbe49d44f	-0.19709896
3	0xbf1cbaae	-0.6122235
4	0xbe16b711	-0.14718272
5	0x3d9f5cbf	0.07781362
6	0x3c3fae57	0.011699281
7	0xbd365c1d	-0.04452144
8	0xbc3f70ef	-0.01168464
9	0x3d1f7ab1	0.038935367
10	0xbc42c600	-0.011888027
11	0xbc28cdd3	-0.010302979
12	0xbaed9c74	-0.0018128292
13	0x3d94086c	0.07228169
14	0x3d33e2fd	0.043917645
15	0xbd98d3e1	-0.07462288
16	0x3d33ba8c	0.043879077
17	0xbc8ffcb2	-0.01757655
18	0xbc8971f4	-0.01677797
19	0xbcc9fb5a	-0.024655987
20	0x3d02c7c1	0.03192878
21	0xbc9d64e6	-0.019213151
22	0xbe926edd	-0.28600207
23	0xbef85777	-0.4850423
24	0xbe700916	-0.23440966
25	0xbce36b81	-0.027761223
26	0x3b4eaf00	0.0031537414
27	0x3dafd1a7	0.0858491
28	0xba5acfe1	-0.00083470164
29	0xbd11b417	-0.035572138
30	0xbc3a6e2b	-0.011378805
31	0xbb424b10	-0.0029646792
32	0xbcf91fbb	-0.030410638
33	0xbd2a18a9	-0.041527424
34	0xbdc23dd5	-0.0948445
35	0xbd8003ff	-0.06250762
36	0xbd8e751f	-0.06955933
37	0x3c12559e	0.008931546
38	0xbb5afa84	-0.003341348
39	0x3c3e70c9	0.01162357
40	0x3d9e9a59	0.07744283
41	0xbd926915	-0.07148949
42	0xbeb49e1a	-0.35276872
43	0xbeb92b6d	-0.36165944
44	0xbe3ab312	-0.18232372
45	0xbd4c28bf	-0.049843546
46	0x3ddf107a	0.108918145
47	0x3ddb3cbb	0.10704943
48	0x3d378df9	0.04481313
49	0x3d8c65f4	0.068553835
50	0x3e0e13f2	0.13874796
51	0x3cedfd8f	0.02905157
52	0xbca4ab1a	-0.020101119
53	0xbccf2a10	-0.025288612
54	0xbca11226	-0.019661974
55	0xbb08531a	-0.0020801486
56	0x3b6e5f25	0.0036372629
57	0xbc48af6c	-0.012248855
58	0x3e0ca0db	0.13733236
59	0x3d972ae3	0.07381227
60	0x3e087a9a	0.13328019
61	0xbe2bd660	-0.16780996
62	0xbf22a613	-0.6353466
63	0xbdb993e6	-0.090614125
64	0x3d7cf4a3	0.06175674
65	0xbd227ea3	-0.03967155
66	0x3c4a1f72	0.012336599
67	0xbbed3728	-0.007239241
68	0xbc98a1fb	-0.018631926
69	0xbc0ec48b	-0.008713852
70	0x3873b369	5.8102803e-05
71	0x3d1496d0	0.03627664
72	0xbc60f965	-0.013731335
73	0xba8a1d25	-0.001053725
74	0x3cdf6c01	0.02727318
75	0xbcce521f	-0.025185643
76	0xbd349ce8	-0.04409495
77	0x3c496d72	0.01229416
78	0xbbf0c222	-0.007347361
79	0xbd97cff4	-0.07412711
80	0xbd0970a0	-0.033554673
81	0xbd9d118a	-0.07669361
82	0x3d39ea9c	0.045389757
83	0xbc3974db	-0.011319364
84	0xbceb0cee	-0.028692689
85	0xbcd5393f	-0.026028274
86	0xbd4684a0	-0.048466325
87	0x3d356483	0.04428531
88	0x3e8afb5c	0.27144897
89	0x3ee63df7	0.4496915
90	0xbc645254	-0.013935644
91	0xbd6b8607	-0.057500865
92	0xbdb0bb32	-0.08629455
93	0xbcc55076	-0.024086218
94	0xbc1f1ff0	-0.009712204
95	0xbc1ff995	-0.009764095
96	0x3ba9e4a8	0.0051847287
97	0xbcc6dc7b	-0.024275055
98	0x3bde22ab	0.006779035
99	0xbd1ddf09	-0.03854278
100	0x3c4a2bed	0.012339574
101	0xbd969010	-0.073516965
102	0xbca217ea	-0.019786794
103	0xbae08dc5	-0.0017132094
104	0xbdb1209d	-0.086487986
105	0xbdfa7245	-0.122288264
106	0x3e843b3e	0.25826448
107	0x3f4f2b04	0.8092501
108	0x3b3e580d	0.0029044182
109	0xbdb5f5b4	-0.08884755
110	0xbc4b932a	-0.012425223
111	0xbbb10b12	-0.005402931
112	0xbc1f633c	-0.009728249
113	0xbca184de	-0.019716676
114	0x3d9a9356	0.07547633
115	0x3d777300	0.060412407
116	0x3d58f896	0.052971445
117	0x3b2d4c08	0.0026443023
118	0x3cbd6880	0.023121119
119	0xbd30f571	-0.04320282
120	0x3d8897e8	0.06669599
121	0x3b898195	0.0041963556
122	0xbded27f8	-0.11579889
123	0xbe9a8c7b	-0.30185303
124	0xbec6a901	-0.38800815
125	0xbe68e8ce	-0.22745058
126	0xbdf04b41	-0.117331035
127	0xbd1df199	-0.038560484
128	0xbd80369b	-0.06260415
129	0xbbe8242c	-0.00708439
130	0xbd53b540	-0.051686525
131	0xbd922800	-0.07136536
132	0xbdb621d2	-0.088931695
133	0x3d4dec53	0.050274204
134	0x3d01571b	0.03157721
135	0xbc07bb7b	-0.008284445
136	0x3db4c2f7	0.08826249
137	0xbda1b085	-0.078949966
138	0xbe225d9c	-0.15856022
139	0xbd0a997e	-0.033837788
140	0xbbeb994c	-0.0071899053
141	0x3e145709	0.14486326
142	0xbe056ca6	-0.13029727
143	0xbeedd653	-0.4645258
144	0xbef06888	-0.4695475
145	0xbe02ba8f	-0.12766479
146	0x3d9a5564	0.07535818
147	0xbc31071e	-0.0108049195
148	0xbc481073	-0.012210953
149	0x3bd36de2	0.006452308
150	0xbce92ff4	-0.028465249
151	0xbd292fe1	-0.041305427
152	0x3cc31a7f	0.023816345
153	0x3b4c69ea	0.003119106
154	0x3d6d04ae	0.05786579
155	0x3d2a4a0d	0.041574527
156	0xbc4d920a	-0.012547025
157	0x3d831781	0.064009674
158	0x3e1b4c47	0.15165816
159	0x3d9e7b09	0.07738311
160	0xbe2a5d06	-0.16637048
161	0xbeb505cf	-0.35355994
162	0xbdd0bfb0	-0.101928115
163	0x3c58e917	0.013239167
164	0x3dea6548	0.11445099
165	0x3e607d5d	0.21922822
166	0x3cc28749	0.02374615
167	0xbaa14a69	-0.0012305501
168	0xbbfd8b6e	-0.0077375686
169	0xbb2dc7bb	-0.0026516754
170	0xbbe23c71	-0.006904178
171	0xbb02e470	-0.0019972585
172	0xbd721d36	-0.05910989
173	0x3eabe5b8	0.335737
174	0x3f2ba096	0.6704191
175	0x3e98db33	0.29854736
176	0xbc8aac5b	-0.016927889
177	0x3d7489ff	0.059701916
178	0x3d3231e9	0.04350463
179	0xbc6e1d8b	-0.014533411
180	0x3d0aee9c	0.033918962
181	0x3c0a3f68	0.008437969
182	0xbc3fe8c0	-0.011713207
183	0xbc44ed0d	-0.012019408
184	0xbdb0c516	-0.08631341
185	0x3cc0c0d5	0.02352945
186	0x3d0a30b7	0.033737864
187	0xbd3638b4	-0.04448767
188	0x3d42e29a	0.047579385
189	0x3cb194d3	0.02167741
190	0x3e282cf8	0.16423404
191	0x3df2b0da	0.11850138
192	0x3dd8d92e	0.10588299
193	0xbe2fc904	-0.17166525
194	0xbe939a69	-0.28828743
195	0x3b99d5f7	0.004694696
196	0xbd58f2e3	-0.05296601
197	0xbe4d4e7b	-0.20049469
198	0xbe26c102	-0.16284564
199	0xbe1d2906	-0.1534768
200	0xbd384b07	-0.044993427
201	0xbd46e483	-0.04855777
202	0xbd590f25	-0.05299296
203	0x3dde1fad	0.108458854
204	0xbe05e88f	-0.13076995
205	0x3d0415a2	0.032247193
206	0xbd4f4ac4	-0.05060841
207	0x3ce6796c	0.02813407
208	0xbc0d2113	-0.008613843
209	0x3e34bc21	0.1764989
210	0x3dfbe985	0.123004
211	0x3d3e75b4	0.04649897
212	0xbde169ed	-0.11006532
213	0xbebbc6ec	-0.36675203
214	0xbc84c5f6	-0.016207676
215	0x3d159743	0.036521208
216	0x3c520bf8	0.012820236
217	0x3c95dc86	0.01829363
218	0x3c1f7f6b	0.009734969
219	0x3adccc74	0.00168456
220	0xbc1520bc	-0.009102043
221	0x3c092783	0.008371237
222	0xbc9923dc	-0.018693857
223	0xbb9d9cab	-0.004809936
224	0x3aece50c	0.0018073632
225	0xbc08f962	-0.008360239
226	0xbac2a1bf	-0.001484923
227	0xbbbac20f	-0.005699403
228	0x3d48df9f	0.049041387
229	0x3dd02966	0.10164146
230	0x3da7d26a	0.0819443
231	0xbc1a55c0	-0.009419858
232	0x3daa9dd8	0.083308876
233	0x3db3ad91	0.087733395
234	0xbc4aab21	-0.012369902
235	0xbcc6d63d	-0.024272079
236	0xbea466cc	-0.32109678
237	0xbe444f76	-0.19170937
238	0xbd7e0d6c	-0.06202452
239	0xbda23355	-0.07919947
240	0xbdbade31	-0.09124411
241	0xbd1d1eb9	-0.038359378
242	0xbde9b9d7	-0.11412399
243	0xbe5c5258	-0.21515787
244	0xbdfff36d	-0.12497602
245	0x3d47d84c	0.04879026
246	0x3d8d8ba0	0.06911397
247	0xbda639a0	-0.0811646
248	0xbba436e4	-0.0050114263
249	0xbe008704	-0.12551504
250	0xbde038f6	-0.109483644
251	0xbddaf4f5	-0.10691253
252	0xbe849be8	-0.25900197
253	0xbe393062	-0.18084863
254	0xbda9db4b	-0.0829378
255	0x3dbca165	0.09210471

conv1.bias f4 [20]
0	0x3b65c3ae	0.003505926
1	0x3cf2909d	0.029609973
2	0x3dbc7525	0.09202031
3	0x3e3785d0	0.17922139
4	0x3d9aebe3	0.07564523
5	0x3d414ab9	0.0471904
6	0xbbcfa4fb	-0.006336806
7	0xbe18b041	-0.14910986
8	0x3e009665	0.12557371
9	0xbe3480e2	-0.1762729
10	0x3e3a3447	0.18184005
11	0x3e135d9a	0.14391175
12	0x3dae5090	0.0851146
13	0x3d204510	0.039128363
14	0x3e7693f1	0.24079873
15	0x3d069a6b	0.03286211
16	0xbe664b15	-0.22489579
17	0xbd1c1f74	-0.038115934
18	0x3dd56b98	0.104209125
19	0xbe5cb4cf	-0.21553348

bn1.weight f4 [20]
0	0x3f570d8e	0.8400506
1	0x3f84819e	1.0352056
2	0x3f825639	1.0182563
3	0x3f91fbcd	1.1404969
4	0x3f5ee651	0.87070185
5	0x3f8a9bd7	1.0828809
6	0x3f833e04	1.0253301
7	0x3f66e2aa	0.9018961
8	0x3f53982e	0.8265408
9	0x3f5f52d8	0.87235785
10	0x3f8a96c5	1.0827261
11	0x3f63ded6	0.89011896
12	0x3f58b0f6	0.8464502
13	0x3f87c1c0	1.0606003
14	0x3f3621fb	0.711456
15	0x3f9d6966	1.229779
16	0x3f837f86	1.0273292
17	0x3f82499f	1.0178717
18	0x3f7eaa57	0.9947867
19	0x3f90b9cf	1.1306704

bn1.bias f4 [20]
0	0x3e97d771	0.29656556
1	0xbd104610	-0.035223067
2	0x3d5bfa28	0.053705364
3	0xbd05cacc	-0.032664105
4	0x3e2d9e43	0.16954903
5	0xbe45a18c	-0.19299906
6	0x3e151c5e	0.14561602
7	0xbd9974e3	-0.074929975
8	0xbe656d9a	-0.22405091
9	0xbe11fb2c	-0.1425597
10	0xbdd52564	-0.10407522
11	0xbe57b82e	-0.21066353
12	0xbda80971	-0.08204926
13	0x3e4b4512	0.19850567
14	0xbe249da8	-0.16075766
15	0xbe21d876	-0.1580523
16	0x3cc34a0f	0.023839025
17	0x3df4d3e8	0.119544804
18	0x3dd62360	0.10455966
19	0xbd934ab3	-0.07191982

bn1.running_mean f4 [20]
0	0x3c23a4f4	0.009988058
1	0x3d3e30c2	0.046433218
2	0x3dc9b28d	0.09848509
3	0x3e3ea9c1	0.18619443
4	0x3d93631a	0.071966365
5	0x3d225af9	0.03963754
6	0x3c1de0d6	0.009636125
7	0xbe090d84	-0.13384062
8	0x3dfd8286	0.12378411
9	0xbe461e83	-0.19347577
10	0x3e44e6be	0.19228646
11	0x3e14cb47	0.14530669
12	0x3dc29a80	0.09502125
13	0x3d6e45a4	0.058171883
14	0x3e77c92e	0.24197838
15	0x3ca903cd	0.020631695
16	0xbe648ec6	-0.22320089
17	0xbc83d7ba	-0.016094077
18	0x3de3602a	0.11102326
19	0xbe550fcc	-0.20806807

bn1.running_var f4 [20]
0	0x3e1a0746	0.15041837
1	0x3ef8d920	0.48603153
2	0x3e420817	0.18948399
3	0x3e1f2b5b	0.15543883
4	0x3dd16fa6	0.102263734
5	0x3e5ae283	0.2137547
6	0x3f1878a5	0.5955909
7	0x3f038407	0.5137333
8	0x3d148994	0.036264017
9	0x3f29299f	0.66079134
10	0x3e8c4371	0.27395204
11	0x3cee4f49	0.02909054
12	0x3ea104c5	0.3144895
13	0x3f20b9e3	0.6278364
14	0x3c5153fd	0.012776372
15	0x3ed9c4ca	0.4253295
16	0x3da88349	0.08228166
17	0x3f6bf7d0	0.92175007
18	0x3e8399db	0.2570332
19	0x3e47eb17	0.19523273

fc.weight f4 [2, 67]
0	0xbe109b6b	-0.14121787
1	0xbdd9e164	-0.10638693
2	0x3d13fc6b	0.036129396
3	0x3e035abe	0.12827584
4	0xbe46df20	-0.19421053
5	0x3c0b02b3	0.00848453
6	0xbe2bb1d6	-0.16767058
7	0x3dba8956	0.09108226
8	0xbd619a90	-0.055079043
9	0xbdff7371	-0.124731906
10	0x3e122ac3	0.14274125
11	0xbe0529a2	-0.13004163
12	0x3e5acbfe	0.2136688
13	0x3ded9950	0.11601508
14	0xbe1ad3c6	-0.15119848
15	0xbe604d69	-0.2190453
16	0xbd960ad1	-0.07326282
17	0x3dd17bc6	0.10228686
18	0xbe3ad92d	-0.18246908
19	0xbdea6d08	-0.11446577
20	0x3e60e429	0.21962036
21	0x3da599c8	0.08085972
22	0x3df467e2	0.119338766
23	0xbe00591f	-0.12533997
24	0x3db8d3ec	0.09024796
25	0xbdc29d1c	-0.095026225
26	0x3d9e5e70	0.07732856
27	0x3e0d933a	0.13825694
28	0xbe4e5468	-0.20149386
29	0x3e370d3c	0.17876142
30	0x3d87181f	0.065963976
31	0x3e0a3df1	0.13500191
32	0x3b9a4d47	0.004708919
33	0xbd0917fa	-0.03347013
34	0xbe0933d0	-0.13398671
35	0x3dc8f0eb	0.098115765
36	0x3c05dd1a	0.0081703905
37	0x3e3f0d3a	0.1865739
38	0x3de539ca	0.11192663
39	0x3dc09cc6	0.09404902
40	0x3e437a42	0.19089606
41	0xbe4ad522	-0.19807866
42	0x3d9de865	0.07710341
43	0xbdf2afd4	-0.11849943
44	0x3e03dad1	0.1287644
45	0x3d00cd75	0.03144594
46	0xbe32c42c	-0.17457646
47	0x3e12425f	0.14283131
48	0xbda94eb8	-0.082669675
49	0xbd70a5b2	-0.05875177
50	0x3e0c189c	0.13681263
51	0xbdb07fa1	-0.08618093
52	0x3d825fc2	0.063659206
53	0xbe3b3aaa	-0.18284097
54	0x3d2ead7d	0.04264592
55	0xbe687bec	-0.22703522
56	0x3ccf2bf5	0.025289515
57	0x3d9872ee	0.07443796
58	0x3c9f46e3	0.019442981
59	0xbca23e3f	-0.019805072
60	0xbe0a921d	-0.135323
61	0x3dfab895	0.122422375
62	0x3df36dab	0.11886152
63	0x3dd7b71c	0.10532972
64	0x3df50dd3	0.119655274
65	0xbc926559	-0.017870592
66	0x3cc8aafb	0.024495592
67	0x3e10fc64	0.1415878
68	0x3d8eacac	0.06966528
69	0xbe21efee	-0.15814182
70	0xbe78b53e	-0.24287888
71	0x3e509052	0.20367554
72	0xbe1c4c48	-0.15263474
73	0x3d517322	0.05113519
74	0xbe0d2833	-0.13784866
75	0x3e5355cb	0.20638196
76	0x3d96d87e	0.07365511
77	0xbdb171f8	-0.08664316
78	0x3e420ce6	0.18950233
79	0xbe5c64c5	-0.21522816
80	0xbd59f8bc	-0.053215727
81	0x3e011870	0.12606978
82	0x3e068570	0.1313684
83	0x3e532f47	0.20623504
84	0xbdc3ee79	-0.095669694
85	0x3e846eac	0.25865686
86	0x3de0187a	0.109421685
87	0xbdb4e63f	-0.088329785
88	0xbe692747	-0.2276889
89	0xbe502b1e	-0.20328948
90	0x3e82508e	0.25452083
91	0xbe0eabd4	-0.13932735
92	0x3dfbd2b5	0.122960486
93	0xbe2aa7c5	-0.16665561
94	0xbe7114bf	-0.2354307
95	0x3da5bd57	0.08092754
96	0xbd32a80f	-0.043617304
97	0xbe19983e	-0.14999482
98	0xbdc1a306	-0.094549224
99	0xbe2f6bb8	-0.17130935
100	0x3e302a0e	0.17203543
101	0x3e1c4f22	0.15264562
102	0xbde5da36	-0.11223261
103	0x3dbb65da	0.09150286
104	0x3d2ba613	0.041906428
105	0x3d4636db	0.048392158
106	0xbd95a3eb	-0.073066555
107	0xbd95cbae	-0.073142394
108	0x3e545ff6	0.20739731
109	0xbe4b036b	-0.19825523
110	0x3e0b9cbf	0.13634013
111	0x3c3e0491	0.011597768
112	0xbd8a9bf9	-0.06768031
113	0x3d135a07	0.03597453
114	0xbe1380b9	-0.14404573
115	0x3e3804eb	0.17970626
116	0x3e138322	0.14405492
117	0xbe09012a	-0.1337935
118	0x3e3b43e5	0.18287618
119	0xbe65e5b2	-0.22450903
120	0x3e38c164	0.18042523
121	0xbde70c6d	-0.11281667
122	0x3e4b30ca	0.1984283
123	0xbe20ecb8	-0.15715301
124	0xbe0fcda2	-0.14043286
125	0xbe1ab699	-0.15108718
126	0x3e365259	0.1780485
127	0x3e2dd29d	0.16974874
128	0xbe362f42	-0.17791465
129	0x3cb94026	0.022613596
130	0x3b1ff5ec	0.0024408055
131	0xbdfe121a	-0.12405796
132	0x3e35dddf	0.17760418
133	0xbe135a68	-0.14389956

fc.bias f4 [2]
0	0x3c981cbf	0.018568395
1	0xbd2cc6b6	-0.042181693

layer1.0.conv1.weight f4 [20, 20, 1]
0	0xbf091b44	-0.5355723
1	0x3e297aca	0.16550747
2	0xbe599311	-0.21247508
3	0x3e9a4580	0.3013115
4	0x3f0f538b	0.5598685
5	0x3e332aae	0.1749675
6	0x3d5fd338	0.054644793
7	0xbdab6c95	-0.0837032
8	0x3e4eb5ca	0.20186535
9	0xbee88950	-0.4541726
10	0x3e1d4f6d	0.1536233
11	0xbf0bb65b	-0.5457513
12	0x3ec06323	0.37575635
13	0xbebb9d07	-0.3664324
14	0x3e610d25	0.2197767
15	0x3f3cf82b	0.73816174
16	0xbe9fdbcb	-0.31222376
17	0xbed2dd47	-0.41184446
18	0x3da15e89	0.07879359
19	0xbd914a00	-0.070941925
20	0x3db057d9	0.086105056
21	0xbf1bf9e8	-0.609282
22	0xbe86dcec	-0.26340425
23	0xbf104077	-0.56348366
24	0x3ea0c0b4	0.3139702
25	0x3cf3d77c	0.029765837
26	0xbe6eb921	-0.23312809
27	0x3ecbf861	0.39837936
28	0x3e940cb2	0.28915936
29	0xbe0f5a87	-0.13999377
30	0x3e0c19b4	0.1368168
31	0x3e6ba7d6	0.23013243
32	0xbe2c0eac	-0.16802472
33	0xbebed37d	-0.37270728
34	0x3d89611e	0.06707977
35	0xbd648b58	-0.05579695
36	0xbf23d488	-0.6399617
37	0x3e7e360d	0.24825306
38	0x3dc412cf	0.095739
39	0xbe8ddbee	-0.27706856
40	0x3cd776b7	0.026301725
41	0xbeb33eaa	-0.35008746
42	0x3e123ea5	0.1428171
43	0x3f0c5967	0.5482392
44	0x3ee7cdae	0.4527411
45	0x3f45fae5	0.7733596
46	0x3eb13192	0.34608132
47	0x3e85156e	0.25992912
48	0xbf4a4d7e	-0.79024494
49	0x3ea3d4bb	0.31998238
50	0xbccb5661	-0.024821462
51	0x3d7a8b2e	0.06116789
52	0xbf0fa68e	-0.5611352
53	0xbe73be62	-0.23803094
54	0xbe8f5c96	-0.28000325
55	0x3d844a53	0.06459489
56	0x3d9bb16d	0.07602201
57	0x3eb60205	0.35548416
58	0xbcb6c6bc	-0.02231156
59	0xbea17fcb	-0.3154281
60	0xbecaef68	-0.39635777
61	0x3e398bd0	0.1811974
62	0xbe250f80	-0.16119194
63	0xbe9d8c59	-0.3077114
64	0xbe9b54bc	-0.30338085
65	0x3e8b3b68	0.2719376
66	0xbe0ff466	-0.14058074
67	0x3ed983a5	0.4248325
68	0xbc814ecc	-0.015784644
69	0x3df7b9e6	0.12096004
70	0xbdf6825b	-0.12036582
71	0x3e9d0655	0.30668893
72	0x3c9d0212	0.019166026
73	0x3e1d1891	0.15341403
74	0x3eb960f1	0.36206773
75	0xbf0ee0f6	-0.55812013
76	0xbe3cde4c	-0.18444175
77	0x3e1cf859	0.15329112
78	0xbe821cb9	-0.2541254
79	0xbe1978be	-0.14987466
80	0x3ece4944	0.40290272
81	0xbd9e82c5	-0.07739786
82	0x3b3614b4	0.0027783336
83	0x3f004cfb	0.5011746
84	0xbd64c707	-0.05585387
85	0xbce88c5b	-0.02838724
86	0xbe0b5e09	-0.1361009
87	0x3e3d98a2	0.18515256
88	0xbe03299d	-0.12808843
89	0x3d666cf2	0.056256242
90	0x3eee0fcb	0.46496424
91	0x3f687873	0.9080879
92	0xbef73269	-0.48280647
93	0xbe7c8a70	-0.24662185
94	0x3d58573f	0.05281758
95	0xbec04001	-0.3754883
96	0x3d1c5e89	0.038176093
97	0xbe698b2f	-0.22807
98	0x3e396a78	0.18107021
99	0xbdd16016	-0.10223405
100	0x3c15d76c	0.009145599
101	0xbe98aafa	-0.29817945
102	0xbed6bb89	-0.41939953
103	0xbd5efe57	-0.054441776
104	0xbe32526a	-0.17414251
105	0xbefec23a	-0.49757558
106	0x3e3d36cb	0.18477933
107	0xbeb2913c	-0.3487643
108	0xbdffbe58	-0.12487477
109	0x3e0d0607	0.1377183
110	0x3dfe1d17	0.12407892
111	0xbde29daf	-0.11065232
112	0x3f0151ec	0.5051563
113	0xbe977de1	-0.29588225
114	0x3d63efe2	0.055648692
115	0xbebcc9c3	-0.36872682
116	0xbc81f256	-0.015862625
117	0xbe97d4fa	-0.29654676
118	0xbd404c06	-0.0469475
119	0x3bd04dac	0.0063569155
120	0x3cd86213	0.026413953
121	0xbe262ddd	-0.16228433
122	0xbeaf6073	-0.34253272
123	0xbe1f335c	-0.15546936
124	0x3e39744f	0.18110774
125	0x3e9698ee	0.2941355
126	0xbd84b70e	-0.064802274
127	0xbdf6df2b	-0.12054285
128	0x3de29499	0.11063499
129	0x3ce0782c	0.027401052
130	0x3d2e2e14	0.042524412
131	0x3e800a65	0.2500793
132	0xbe080cd7	-0.13286148
133	0x3d973a5b	0.07384177
134	0xbd188c9e	-0.037243478
135	0xbf1e0ddf	-0.61739916
136	0x3dd92036	0.10601847
137	0x3f1df3f4	0.6170037
138	0x3e3198bf	0.17343424
139	0xbf1281a8	-0.5722909
140	0xbf09599f	-0.53652376
141	0x3d511654	0.051046684
142	0x3e90571c	0.2819146
143	0xbdb9a103	-0.09063914
144	0xbf0552a6	-0.52079237
145	0x3e2ce7ab	0.1688525
146	0xbeb4010a	-0.35157043
147	0xbf29daa2	-0.6634923
148	0xbdcc565a	-0.09977408
149	0x3e9309dc	0.2871846
150	0xbe6fc200	-0.23413849
151	0x3d8b3ef3	0.06799116
152	0x3e86f57e	0.2635917
153	0x3cf1ae34	0.029502012
154	0x3f157260	0.5837765
155	0x3f0c46cb	0.5479552
156	0x3f30ae49	0.6901594
157	0xbe8fa48f	-0.28055236
158	0x3e48167f	0.19539832
159	0x3e893742	0.2679997
160	0x3dbce82a	0.09223969
161	0xbdc65b84	-0.09685424
162	0x3d321610	0.04347807
163	0x3e6b161f	0.22957657
164	0x3ef56d80	0.47935104
165	0xbe83b556	-0.25724286
166	0xbd666538	-0.056248873
167	0x3e83d910	0.25751543
168	0xbee3303c	-0.44372737
169	0xbcf4cd21	-0.02988297
170	0xbeb18f22	-0.34679514
171	0x3e5cdf30	0.21569514
172	0xbf3e24b7	-0.7427477
173	0xbdb6e661	-0.0893066
174	0x3cc5b14c	0.024132393
175	0xbd0e343b	-0.03471778
176	0x3ef21d23	0.47287855
177	0x3e91528c	0.2838329
178	0x3ef0592b	0.4694303
179	0x3c7967ab	0.01522247
180	0xbd8d791f	-0.06907868
181	0x3f12a96e	0.5728978
182	0x3ec4a46f	0.38406703
183	0x3e952671	0.2913089
184	0x3f600894	0.8751309
185	0x3b669dbf	0.003518924
186	0x3e3eefe7	0.18646203
187	0xbdaa5928	-0.083177865
188	0xbda4079a	-0.080092624
189	0xbd451934	-0.04811974
190	0xbe9ffad6	-0.3124606
191	0x3e06e40a	0.13172927
192	0x3ceea3e2	0.02913088
193	0xbedb6a4e	-0.42854542
194	0x3e3f6d72	0.18694094
195	0xbec4c2da	-0.3842991
196	0x3efce4d5	0.49393335
197	0xbeb593de	-0.35464376
198	0x3cf6b776	0.030116778
199	0xbe8ae617	-0.2712867
200	0x3dd55099	0.104157634
201	0xbdf20e69	-0.11819155
202	0xbe8b4889	-0.27203777
203	0x3f3feda2	0.74971974
204	0xbeef2edf	-0.46715447
205	0xbda968e4	-0.082719594
206	0x3d11362f	0.035452064
207	0xbd90bbd7	-0.070670776
208	0x3d373547	0.044728544
209	0xbe30d9d0	-0.17270589
210	0x3d806294	0.06268802
211	0xbdf90f3e	-0.1216111
212	0x3e8edc32	0.2790237
213	0x3d663721	0.05620492
214	0xbe2e0d59	-0.16997279
215	0xbe222870	-0.15835738
216	0x3d82a935	0.0637993
217	0xbd799d11	-0.060940806
218	0xbecdaf95	-0.4017302
219	0xbdbd63ba	-0.09247537
220	0x3df0d647	0.1175962
221	0x3e108d8c	0.14116496
222	0xbd762359	-0.060092304
223	0xbe9b41e1	-0.303237
224	0xbe674293	-0.2258399
225	0x3eb3a46b	0.35086378
226	0xbcc2de44	-0.023787625
227	0x3ecd26e4	0.40068734
228	0xbdc2ee88	-0.095181525
229	0xbe719411	-0.23591639
230	0x3eb5ee72	0.35533482
231	0xbe33a67f	-0.17543982
232	0x3f304604	0.68856835
233	0x3e92a032	0.28637844
234	0xbf0028e6	-0.50062406
235	0x3d01a107	0.03164771
236	0xbea093c4	-0.31362736
237	0x3e589f5d	0.21154542
238	0xbe919fd2	-0.28442246
239	0xbe0b9320	-0.13630342
240	0x3e681339	0.22663583
241	0x3d2eceb5	0.0426776
242	0x3f3b3e61	0.7314206
243	0x3f07d041	0.53052145
244	0xbe50314c	-0.20331305
245	0xbf1303ea	-0.5742785
246	0xbec2c75f	-0.38042733
247	0x3df93e70	0.12170112
248	0x3e847c6d	0.2587618
249	0xbf323b81	-0.69622046
250	0x3ec57039	0.38562182
251	0xbec3561d	-0.38151637
252	0x3cc37060	0.023857296
253	0xbe1a87dc	-0.15090889
254	0x3db0ba60	0.08629298
255	0xbeed182b	-0.463075

layer1.0.bn1.weight f4 [20]
0	0x3f8edf6f	1.1161937
1	0x3f8a10b7	1.0786351
2	0x3f690a11	0.91030985
3	0x3f7bc356	0.98344934
4	0x3f916045	1.1357504
5	0x3f85759b	1.0426515
6	0x3f7754bf	0.9661369
7	0x3f8d4084	1.1035314
8	0x3f707351	0.9392596
9	0x3f5143ea	0.81744254
10	0x3f870a2e	1.0549982
11	0x3f73e66f	0.9527349
12	0x3f91854c	1.1368804
13	0x3f936450	1.1514988
14	0x3f6aca45	0.9171489
15	0x3f306e6c	0.6891849
16	0x3f6f8d87	0.9357533
17	0x3f7faa96	0.9986967
18	0x3f69f8a1	0.91395
19	0x3f7f31f4	0.996856

layer1.0.bn1.bias f4 [20]
0	0x3e13ef97	0.14446865
1	0xbde8e66a	-0.11372073
2	0xbd9044f6	-0.07044403
3	0x3d6a6417	0.05722436
4	0x3d30dd9f	0.043180104
5	0x3d8857ed	0.066573955
6	0xbcc3a98f	-0.023884563
7	0x3c68dce6	0.014212823
8	0x3dde62bb	0.10858675
9	0x3d9ae5f2	0.0756339
10	0x3d873aef	0.066030376
11	0xbd10dca2	-0.03536666
12	0xbe746d92	-0.23869923
13	0x3eb58326	0.3545162
14	0xbbce944f	-0.006304301
15	0xbc8d42c9	-0.01724376
16	0xbd68427e	-0.056704037
17	0xbd2259dc	-0.039636478
18	0x3dc23951	0.094835885
19	0x3da3a232	0.07989921

layer1.0.bn1.running_mean f4 [20]
0	0xbc84132c	-0.016122423
1	0xbf65b277	-0.8972544
2	0x3f27d253	0.65555304
3	0xbf23a9e8	-0.6393113
4	0x3ecfc4d0	0.40579844
5	0xbf8e7daf	-1.1132106
6	0xbe4f1c9a	-0.20225754
7	0x3e3ea6da	0.18618336
8	0x3efd5a88	0.49483132
9	0x3f1c3dcc	0.61031795
10	0xbec13b80	-0.37740707
11	0x3d9976bb	0.07493349
12	0x3dd4d66b	0.103924595
13	0xbeeba0bf	-0.46021077
14	0xbeee6923	-0.46564588
15	0x3ea3cae4	0.3199073
16	0xbeafa0ce	-0.34302372
17	0x3f6ac434	0.9170563
18	0xbfc3efff	-1.5307616
19	0xbde43c15	-0.11144272

layer1.0.bn1.running_var f4 [20]
0	0x3f924e47	1.1430138
1	0x3fb3d467	1.4049195
2	0x3f484402	0.7822877
3	0x3ef90aac	0.48640954
4	0x3f807a6a	1.0037358
5	0x3f937eb2	1.1523039
6	0x3e786ad9	0.24259509
7	0x3fae9b83	1.3641208
8	0x3fb03bb3	1.3768219
9	0x3f7bfb0c	0.9842994
10	0x3f1fa9ba	0.6236836
11	0x3f53d327	0.8274407
12	0x401df721	2.4682086
13	0x3f28b926	0.65907514
14	0x3f13803f	0.57617563
15	0x40243d86	2.566255
16	0x3ef3660c	0.47538793
17	0x3f70f375	0.94121486
18	0x3ff1319c	1.8843265
19	0x3f1b61b9	0.6069599

layer1.0.conv2.weight f4 [20, 20, 3]
0	0xbdb464e8	-0.08808309
1	0x3f2c9c95	0.67426425
2	0x3e878dc1	0.26475337
3	0xbdb4212b	-0.08795389
4	0x3e6ff539	0.23433389
5	0x3bc11038	0.005891826
6	0xbe6a0428	-0.22853148
7	0x3e88b5a5	0.26701084
8	0x3d8cf649	0.06882913
9	0xbcf8a570	-0.030352324
10	0x3ed022b9	0.4065149
11	0x3e277aa3	0.16355376
12	0xbde74cf9	-0.11293978
13	0xbe14af7d	-0.14520068
14	0x3efa0e76	0.48839158
15	0xbd35aab3	-0.044352245
16	0x3e81b7a4	0.2533542
17	0x3ec04b00	0.3755722
18	0xbe122dec	-0.1427533
19	0xbe85247e	-0.26004404
20	0x3e915338	0.28383803
21	0x3d96ccee	0.07363306
22	0x3dc2265b	0.09479972
23	0xbdb72f61	-0.08944584
24	0x3db65a80	0.0890398
25	0xbe8ee3a4	-0.2790805
26	0xbd431f6b	-0.047637384
27	0x3e83fcf8	0.25778937
28	0xbe81e7cf	-0.25372168
29	0xbe31199c	-0.17294925
30	0xbea23ff1	-0.31689408
31	0x3d56406d	0.052307535
32	0x3e1e3bc8	0.15452492
33	0x3ca4d69e	0.020121869
34	0xbe4b0354	-0.19825488
35	0xbe69bea6	-0.22826633
36	0x3cf79a55	0.030224958
37	0xbd37edee	-0.04490464
38	0xbe197c88	-0.14988911
39	0x3e46a78e	0.19399855
40	0xbddf0856	-0.10890262
41	0x3e76476d	0.24050684
42	0xbe748a16	-0.238808
43	0xbe2fb1ce	-0.17157671
44	0x3e113ed6	0.14184126
45	0xbe7bfb9a	-0.24607697
46	0x3def7a31	0.11693228
47	0x3d27ea9e	0.040995233
48	0xbe9fdcc4	-0.31223118
49	0xbd80310b	-0.06259354
50	0x3e1544c8	0.14577019
51	0x3cca6ee0	0.024711072
52	0x3c19cde8	0.009387471
53	0x3c029634	0.0079703815
54	0xbc85a9d0	-0.016316324
55	0xbcbb14c7	-0.022837056
56	0xbea9636b	-0.33083662
57	0x3e7b8a44	0.24564463
58	0x3ecfbcac	0.40573633
59	0x3dd0bcf5	0.10192291
60	0x3a7690e1	0.0009405744
61	0x3de585a9	0.11207134
62	0x3e966da1	0.29380515
63	0x3ca0af61	0.019614877
64	0xbdc8b8ce	-0.09800874
65	0x3e421c42	0.18956092
66	0x3ead60cc	0.33862913
67	0x3e761e60	0.24035025
68	0xbe323031	-0.17401196
69	0xbe296bff	-0.16545103
70	0xbd70e645	-0.058813352
71	0xbddae7ff	-0.10688781
72	0xbd593a12	-0.053033896
73	0xbe59f96d	-0.21286555
74	0xbe31abed	-0.1735074
75	0x3ddf04e4	0.10889605
76	0x3de60cde	0.11232923
77	0xbeceae88	-0.40367532
78	0xbe6d7c92	-0.23192051
79	0x3eb0fb34	0.34566653
80	0x3d17d1db	0.03706537
81	0xbcdae627	-0.026721073
82	0xbe826b4c	-0.25472486
83	0x3f192d4a	0.5983473
84	0x3f011d6f	0.5043554
85	0xbd741009	-0.059585605
86	0xbc267f15	-0.010162135
87	0xbe8a76b7	-0.27043697
88	0x3edbce7c	0.42930973
89	0x3e27023d	0.16309448
90	0xbe010e4e	-0.12603113
91	0x3da5b072	0.08090295
92	0x3d11dd04	0.035611168
93	0xbd692710	-0.05692202
94	0x3dc88b64	0.09792212
95	0x3d484dbe	0.048902266
96	0x3d7fcfe8	0.062454134
97	0xbddba3bf	-0.107245915
98	0xbde2dca4	-0.1107724
99	0x3d4aa34a	0.04947213
100	0x3ed91a26	0.42402762
101	0x3e61db39	0.22056283
102	0xbe2cef4f	-0.16888164
103	0xbe0ff284	-0.14057356
104	0x3e2ca10f	0.16858314
105	0xbdbaecff	-0.09127235
106	0x3e89051c	0.2676171
107	0xbe821126	-0.25403708
108	0x3dae5aa8	0.08513385
109	0x3cd1d277	0.025613053
110	0xbe83b6ca	-0.25725394
111	0xbe35d9dc	-0.17758888
112	0x3e86c3f1	0.26321366
113	0x3e5dbc03	0.21653752
114	0xbdce2390	-0.10065377
115	0xbc49c0aa	-0.012314001
116	0xbd10bea3	-0.035338055
117	0xbdd922a2	-0.10602309
118	0x3db9aa1c	0.09065649
119	0x3e83122d	0.25599805
120	0x3d3a90dc	0.045548305
121	0x3e017abf	0.1264448
122	0x3e859670	0.26091337
123	0x3eaba002	0.33520514
124	0x3d89799d	0.06712649
125	0x3df86954	0.12129465
126	0x3dbb4473	0.09143915
127	0xbeae7a80	-0.34077835
128	0x3e813153	0.25232944
129	0xbe1306f4	-0.14358121
130	0x3e60b84f	0.21945308
131	0x3ea7e45e	0.32791418
132	0xbd93bf54	-0.07214227
133	0xbe0f2d01	-0.13982011
134	0xbe2da04a	-0.16955677
135	0x3d4c45bf	0.049871203
136	0x3e96221a	0.29322892
137	0x3e6ac212	0.22925594
138	0x3d6eb1ef	0.05827516
139	0x3dcca7b6	0.09992926
140	0xbea42fed	-0.32067814
141	0x3e212420	0.15736437
142	0xbe3d8013	-0.18505888
143	0xbf0f34b2	-0.5593978
144	0xbe06c9c4	-0.13162905
145	0x3dc75fdc	0.097350806
146	0x3ceb19a9	0.02869876
147	0xbc084562	-0.008317323
148	0xbe9871da	-0.29774362
149	0xbe9a2f8b	-0.30114397
150	0x3e377371	0.17915131
151	0xbc93095f	-0.017948804
152	0xbd1ffa67	-0.03905716
153	0xbd0576f2	-0.03258414
154	0xbe28d955	-0.16489156
155	0x3c9fb84b	0.019497057
156	0xbd0e8f82	-0.03480483
157	0xbddbccd0	-0.10732424
158	0x3cb9c8d7	0.022678776
159	0x3e4fa506	0.20277795
160	0x3e5b3a98	0.2140907
161	0x3d21b845	0.039482374
162	0x3cf8dff4	0.030380227
163	0x3dae5540	0.08512354
164	0xbe710df8	-0.23540485
165	0x3e88df3f	0.26732823
166	0xbea70f8a	-0.32629043
167	0xbd259739	-0.04042742
168	0x3e8cf523	0.27530774
169	0x3e2e1182	0.16998866
170	0xbd8d2042	-0.06890918
171	0x3ec6d31a	0.38832933
172	0xbed6a3ae	-0.41921753
173	0xbc94214c	-0.018082283
174	0xbe163a86	-0.14670762
175	0x3d27a0af	0.040924724
176	0xbd33cf99	-0.043899152
177	0x3e5f4ce8	0.21806681
178	0xbdaa11d4	-0.08304182
179	0xbe340727	-0.17580853
180	0xbe206a42	-0.15665534
181	0xbceedfb6	-0.029159408
182	0xbd6bc325	-0.05755915
183	0x3ddd88cb	0.10817107
184	0xbea050f1	-0.31311753
185	0xbe3deacc	-0.18546599
186	0x3d748a06	0.059701942
187	0x3daf7fe8	0.08569318
188	0x3df3a8dd	0.118974425
189	0x3bb3bf53	0.005485454
190	0x3e72c469	0.23707737
191	0x3d2d6dc9	0.042341027
192	0x3df23d42	0.1182809
193	0x3eaa7695	0.33293596
194	0xbe8f8458	-0.28030658
195	0xbe4fa1ba	-0.20276538
196	0x3e101ab4	0.14072686
197	0xbe4a7b96	-0.19773707
198	0xbc178ad3	-0.009249407
199	0xbe883a80	-0.26607132
200	0xbe3c66dc	-0.18398613
201	0x3e03cd4c	0.12871283
202	0xbc44008c	-0.011963021
203	0x3e02131a	0.12702599
204	0xbe5a2684	-0.21303755
205	0xbd7f7fda	-0.062377788
206	0x3ed59bc6	0.41720408
207	0xbebc89d7	-0.36823913
208	0x3e9f959a	0.31168824
209	0xbe890c1a	-0.26767045
210	0x3dda82e5	0.106694974
211	0x3f098f30	0.5373411
212	0xbe6830ba	-0.22674838
213	0x3d9410eb	0.07229789
214	0x3e512f38	0.20428169
215	0xbd951c34	-0.0728077
216	0xbe2a4f21	-0.16631748
217	0x3ec31ff8	0.38110328
218	0xbe1506f6	-0.14553437
219	0xbe1a1604	-0.15047461
220	0xbd038547	-0.032109525
221	0x3eb7f8e8	0.35932088
222	0xbd1a0f2a	-0.037612118
223	0x3e8c4c9d	0.274022
224	0x3dfc317d	0.12314127
225	0x3df7ffee	0.121093616
226	0x3bf0d753	0.0073498874
227	0xbe32c279	-0.17456998
228	0x3e766e81	0.24065591
229	0xbd1b467f	-0.037909027
230	0x3ccfba28	0.02535732
231	0x3dd650f4	0.10464659
232	0x3e435bee	0.19078037
233	0xbd2c9ea1	-0.042143468
234	0x3cdf877c	0.027286284
235	0xbe83ccf5	-0.25742307
236	0x3e0477b4	0.12936288
237	0x3df9c860	0.121964216
238	0x3df0b642	0.11753513
239	0xbe81cedb	-0.2535313
240	0x3e896d59	0.26841238
241	0xbdb743a1	-0.08948446
242	0xbdad6d10	-0.08468068
243	0xbd353932	-0.044244
244	0x3de32332	0.11090697
245	0x3e607a1d	0.21921583
246	0x3f57e4d0	0.84333515
247	0xbe247d2a	-0.16063371
248	0x3c03273e	0.008004962
249	0x3c2b6c32	0.0104628075
250	0xbe23417a	-0.15942946
251	0xbcc50cf4	-0.024054028
252	0xbd8daeaf	-0.06918084
253	0x3e88de6c	0.26732194
254	0x3e3b61dd	0.1829905
255	0xbe4f169e	-0.20223472

layer1.0.bn2.weight f4 [20]
0	0x3f85768f	1.0426806
1	0x3f84957f	1.0358123
2	0x3f8e099a	1.109668
3	0x3f841365	1.0318419
4	0x3f820041	1.0156327
5	0x3f78b23f	0.9714698
6	0x3f75d88c	0.9603355
7	0x3f660dce	0.89864814
8	0x3f74ca7b	0.9562146
9	0x3f7b52e2	0.98173344
10	0x3f70e8a2	0.9410497
11	0x3f84d7e8	1.0378389
12	0x3f7fbc8a	0.9989706
13	0x3f865b08	1.049653
14	0x3f9028cd	1.1262451
15	0x3f8437dc	1.0329547
16	0x3f760837	0.96106285
17	0x3f81a36c	1.0127997
18	0x3f7ab868	0.9793763
19	0x3f5d449d	0.8643282

layer1.0.bn2.bias f4 [20]
0	0xbc8efec0	-0.017455459
1	0xbd1c3749	-0.03813866
2	0xbcccf817	-0.025020642
3	0x3dd6d821	0.10490442
4	0x3c9aeab4	0.018910743
5	0x3d03e9d1	0.032205407
6	0x3d920c1e	0.071312174
7	0xbc4e1e1c	-0.012580421
8	0x3e8a2c98	0.26987147
9	0x3e4c726f	0.19965528
10	0x3d805045	0.0626531
11	0x3d984b3d	0.074362256
12	0x3e16f84b	0.14743154
13	0xbc31e6bd	-0.010858235
14	0xbdb8c8e4	-0.09022692
15	0x3ca569a3	0.020191973
16	0xbdb00f1e	-0.085966334
17	0xbd3132c8	-0.04326132
18	0x3d8c4d12	0.068506375
19	0xbd813c88	-0.063103735

layer1.0.bn2.running_mean f4 [20]
0	0x3f70bdec	0.940398
1	0x3f66ee20	0.902071
2	0x3eb86dc7	0.36021253
3	0x3ed072d1	0.40712598
4	0x3f61c466	0.88190305
5	0xbf358990	-0.7091303
6	0x3f6f88a0	0.9356785
7	0xbdcae5b8	-0.099070966
8	0xbee92955	-0.45539346
9	0x3e825319	0.25454023
10	0xbf980551	-1.1876622
11	0xbf6e955f	-0.9319667
12	0x3ea7a40e	0.3274235
13	0xbf6b0c50	-0.9181566
14	0x3e488cd4	0.19584972
15	0xbee9bd06	-0.45652026
16	0xbf6ff06a	-0.9372622
17	0x3fa29084	1.2700353
18	0x3d9f1803	0.07768252
19	0xbfca8c9f	-1.5824164

layer1.0.bn2.running_var f4 [20]
0	0x401815ee	2.3763385
1	0x3f9d5a75	1.229323
2	0x4002d515	2.0442555
3	0x3f8da696	1.1066463
4	0x3fb47f73	1.4101394
5	0x403aa18c	2.91611
6	0x3f622332	0.88334954
7	0x3fa9c603	1.3263553
8	0x3f9189d9	1.1370193
9	0x3f407c5f	0.75189775
10	0x3f6e92ae	0.93192565
11	0x3f3abc43	0.72943515
12	0x401e36cb	2.4720943
13	0x3fc2329b	1.5171694
14	0x3f761d5f	0.96138567
15	0x3fe24385	1.7676855
16	0x3f738e4d	0.9513901
17	0x3fbae043	1.4599689
18	0x3f9dff06	1.2343452
19	0x3f9a0d30	1.2035275

layer1.0.conv3.weight f4 [20, 20, 1]
0	0xbd31bb59	-0.04339156
1	0x3e214c77	0.15751825
2	0xbdea1011	-0.11428846
3	0xbe715102	-0.23566058
4	0xbbedaa29	-0.0072529507
5	0x3e0c02f3	0.13673
6	0xbd06b079	-0.03288314
7	0x3e34bb95	0.17649682
8	0xbe55d911	-0.20883586
9	0xbe3fcdbb	-0.18730824
10	0x3f5ca624	0.8619101
11	0x3ec804a4	0.3906604
12	0xbd5487d3	-0.051887345
13	0x3e8712d7	0.2638156
14	0x3dc45b3a	0.095877126
15	0xbe1ca3ca	-0.15296856
16	0x3dcbfbfd	0.09960172
17	0x3e57e272	0.21082476
18	0x3ea5995a	0.3234356
19	0xbead9c7f	-0.3390846
20	0x3e8fb13d	0.2806491
21	0xbecbebc3	-0.3982831
22	0x3e8c6c94	0.2742659
23	0x3ec1b6a5	0.3783466
24	0xbe5bb17a	-0.2145442
25	0xbea5ded3	-0.32396564
26	0x3e1e6ecc	0.15471953
27	0x3eaf6b7f	0.342617
28	0x3e61eed1	0.22063757
29	0xbd8a4c29	-0.06752808
30	0xbea9af4e	-0.3314156
31	0x3e5aaba3	0.21354537
32	0x3f4e9306	0.8069309
33	0x3befa6c9	0.0073135835
34	0xbf1753a6	-0.5911201
35	0x3d2fb19c	0.04289399
36	0x3e9e7bdc	0.30953872
37	0x3cf9a89f	0.030475913
38	0xbe8b659b	-0.27225956
39	0xbeaa6fb3	-0.33288345
40	0xbde37052	-0.11105408
41	0xbd1cd4bf	-0.038288828
42	0xbdd59e58	-0.10430592
43	0xbe7bb5a1	-0.24581005
44	0xbe871845	-0.26385704
45	0x3dcc73ff	0.09983062
46	0xbbf8ba92	-0.0075906003
47	0x3ec919b2	0.39277416
48	0xbe381dae	-0.17980072
49	0x3e9b26d7	0.3030307
50	0xbea4b220	-0.3216715
51	0x3e82d922	0.25556284
52	0xbefcb55c	-0.49357116
53	0xbd871263	-0.06595304
54	0xbd342638	-0.04398176
55	0xbda765ce	-0.081737146
56	0x3f06203c	0.52392936
57	0xbd045bde	-0.032314174
58	0xbd2f26ea	-0.04276172
59	0x3e36d887	0.17856036
60	0xbe901fee	-0.2814936
61	0x3e1f88b6	0.15579495
62	0x3f03d526	0.51497114
63	0xbe7b966a	-0.24569097
64	0x3beae9a7	0.007168967
65	0x3f3e2c07	0.7428593
66	0x3dfcc40f	0.12342083
67	0xbec1ed69	-0.37876442
68	0xbed843c1	-0.42239192
69	0x3d415775	0.047202546
70	0xbe478f1e	-0.19488189
71	0xbf554b6e	-0.8331822
72	0xbec85c8e	-0.39133114
73	0xbea4c1c4	-0.3217908
74	0x3e93e988	0.28889108
75	0x3eec7084	0.46179593
76	0x3c8cdf06	0.01719619
77	0x3dd96ac0	0.10616064
78	0x3e4c0ef4	0.19927579
79	0x3e63b8bd	0.22238441
80	0xbe553857	-0.20822273
81	0x3d8cee88	0.06881434
82	0x3e033995	0.12814935
83	0xbe703199	-0.2345642
84	0x3da1de88	0.079037726
85	0x3e9c4077	0.30517933
86	0x3e4965ac	0.19667691
87	0xbe5abe06	-0.2136155
88	0xbe468e1e	-0.19390151
89	0x3e47db5f	0.19517277
90	0x3e0b026d	0.13575144
91	0xbea7d995	-0.3278319
92	0x3f1bb206	0.6081852
93	0x3cf96a06	0.030446064
94	0x3e88fa9a	0.26753694
95	0x3e3f85b7	0.18703352
96	0x3ec0ddd5	0.37669244
97	0xbe9b9c2d	-0.3039259
98	0xbe10f665	-0.14156492
99	0xbef07cd5	-0.4697024
100	0xbf08a690	-0.53379154
101	0x3f28d788	0.65953875
102	0x3da1fc3d	0.07909439
103	0xbb7caabf	-0.003855392
104	0x3d020802	0.031745918
105	0x3e9b1fb0	0.30297613
106	0x3e6277ad	0.22115965
107	0x3e5de0b5	0.2166775
108	0x3ebfc08d	0.37451592
109	0x3e87a4e6	0.26492995
110	0xbeb58299	-0.354512
111	0x3e5f0cac	0.21782178
112	0xbbe65765	-0.007029461
113	0x3c1c3be0	0.00953576
114	0x3ddb49f0	0.10707462
115	0x3e0030dd	0.1251864
116	0xbe2c0ff7	-0.16802965
117	0x3f1079a4	0.5643561
118	0xbe75573e	-0.23959062
119	0x3dc9734c	0.09836444
120	0x3ec50faf	0.38488528
121	0xbf0d0c45	-0.55096847
122	0xbd8b19cb	-0.06792029
123	0x3e999ed4	0.3000399
124	0xbeb4a9e7	-0.35285875
125	0xbf20b1c9	-0.6277128
126	0xbf19d3c0	-0.6008873
127	0x3f0895b2	0.53353417
128	0x3eeef644	0.4667226
129	0x3de53cde	0.1119325
130	0xbe5cf55a	-0.21577969
131	0x3d5801d1	0.052736107
132	0xbea28815	-0.31744447
133	0x3ca9c18f	0.020722179
134	0xbea980c0	-0.3310604
135	0x3f42ca66	0.76090086
136	0x3ea64701	0.32476047
137	0xbd8560d0	-0.06512606
138	0xbe3e5c96	-0.18590006
139	0xbd255273	-0.040361833
140	0xbdb3dd82	-0.08782484
141	0xbdad0b0e	-0.08449374
142	0x3ed3052d	0.41214886
143	0xbddb463a	-0.10706754
144	0x3d57014b	0.052491467
145	0x3e1248d7	0.14285599
146	0x3eb28dcd	0.3487381
147	0x3e408596	0.18800959
148	0x3e1b42e7	0.1516224
149	0x3f113ee6	0.567366
150	0xbe8c76f3	-0.274345
151	0x3e1726ab	0.14760844
152	0xbf004b6a	-0.5011507
153	0x3d163896	0.03667506
154	0x3dca31d2	0.09872784
155	0x3cd6ee69	0.02623673
156	0x3e32a13c	0.17444319
157	0x3d0ea55c	0.034825668
158	0x3adb9769	0.0016753498
159	0xbe8109e5	-0.2520286
160	0x3dd8a8d9	0.1057908
161	0xbf585110	-0.8449869
162	0x3e68070e	0.22658941
163	0x3f090d8d	0.535363
164	0xbe70bf4e	-0.23510477
165	0x3cbaeb95	0.022817412
166	0x3d93cbba	0.07216592
167	0xbe87b098	-0.26501918
168	0x3eb5f5c8	0.3553908
169	0x3c8ec663	0.017428583
170	0x3c83e1f8	0.016098961
171	0x3e06d291	0.13166262
172	0x3eb7928b	0.3585399
173	0x3ef1a790	0.47198153
174	0xbe23d6b0	-0.15999866
175	0xbe01c83f	-0.12674044
176	0x3e993722	0.29924875
177	0x3d20cfaa	0.039260544
178	0xbeafc048	-0.34326386
179	0xbe4c2793	-0.19936971
180	0x3f5a44ba	0.8526112
181	0x3e8a99e7	0.27070543
182	0x3df0ee96	0.11764257
183	0xbf1602f8	-0.5859828
184	0x3cbe3332	0.023217771
185	0x3e10d4c8	0.1414367
186	0x3f0555d0	0.52084064
187	0xbe4d63ce	-0.20057604
188	0xbd9baad5	-0.07600943
189	0xbe501233	-0.20319442
190	0x3ef08769	0.4697831
191	0x3ddf28bc	0.10896441
192	0xbf24b9f1	-0.64346224
193	0x3e529d40	0.20567799
194	0x3e356698	0.17714918
195	0xbf40a0c6	-0.7524532
196	0x3e92ccd7	0.28671905
197	0xbda70c66	-0.08156662
198	0xbeaf5d17	-0.3425071
199	0x3dbd22f8	0.092351854
200	0x3ea67189	0.32508495
201	0x3e8cdadf	0.27510735
202	0x3f11c928	0.56947565
203	0xbe435a76	-0.19077477
204	0xbd455d7a	-0.04818485
205	0x3e44a899	0.1920494
206	0xbe2829af	-0.16422151
207	0x3ee62795	0.44952074
208	0xbde4f9fc	-0.11180493
209	0xbe4cce88	-0.2000066
210	0xbdd7e9ca	-0.105426386
211	0x3e649924	0.22324044
212	0x3f26f669	0.6521974
213	0xbf10a7ea	-0.56506217
214	0x3e1949a1	0.14969493
215	0xbed97e05	-0.42478958
216	0x3cb1a5da	0.02168553
217	0x3ebf8a7a	0.37410337
218	0x3ecb2d8e	0.39683193
219	0x3e655db2	0.22399023
220	0x3ec94e56	0.39317578
221	0xbf384037	-0.71972984
222	0x3e323860	0.17404318
223	0xbe308df7	-0.17241655
224	0xbf0a7c09	-0.5409551
225	0x3ee2046f	0.44144008
226	0x3de18e3f	0.110134594
227	0x3eabd11b	0.33557972
228	0x3e29a759	0.16567744
229	0x3e6201ef	0.2207105
230	0xbeb37dd8	-0.3505695
231	0xbdc9045c	-0.098152846
232	0xbdd26b7b	-0.102744065
233	0xbf3ac4d2	-0.72956574
234	0x3c8850ab	0.016640028
235	0xbeb31bf0	-0.34982252
236	0x3e6d8b96	0.23197779
237	0xbdda5f23	-0.10662677
238	0x3ea6710e	0.3250813
239	0xbd9a35ed	-0.07529817
240	0x3f266a52	0.6500598
241	0xbe986266	-0.29762572
242	0x3e20638c	0.15662974
243	0x3eec18c4	0.46112645
244	0xbe8d423b	-0.27589592
245	0x3d390aab	0.04517619
246	0xbdcc9bc2	-0.09990646
247	0xbf43d8a3	-0.76502436
248	0x3ef71e2a	0.482652
249	0x3ed4fa50	0.41597223
250	0xbbecfac0	-0.00723204
251	0x3eb62f46	0.35582942
252	0x3bc7afe9	0.006093968
253	0xbe840b77	-0.25789997
254	0xbe278eb8	-0.16363037
255	0xbd832826	-0.06404142

layer1.0.bn3.weight f4 [20]
0	0x3f87da1c	1.0613437
1	0x3f7edbdb	0.9955422
2	0x3f675480	0.9036331
3	0x3f8049d8	1.0022535
4	0x3f84ba93	1.0369438
5	0x3f87787d	1.0583645
6	0x3f80bb06	1.0057075
7	0x3f86ccfa	1.0531304
8	0x3f2aa527	0.6665825
9	0x3f706cc3	0.9391596
10	0x3f691548	0.910481
11	0x3f82cebe	1.0219343
12	0x3f84bb72	1.0369704
13	0x3f9a3651	1.2047826
14	0x3f7a3c67	0.97748417
15	0x3f8730f9	1.056182
16	0x3f6943d2	0.9111911
17	0x3f816aff	1.0110778
18	0x3f7bb39e	0.9832095
19	0x3f850828	1.0393114

layer1.0.bn3.bias f4 [20]
0	0x3c5852c0	0.013203323
1	0xbd24fd94	-0.040280893
2	0x3d18ef12	0.03733737
3	0x3db427dc	0.08796665
4	0x3a9ca958	0.0011952324
5	0xbcfbde19	-0.030745553
6	0x3d4083fe	0.047000878
7	0xbd800127	-0.0625022
8	0x3dbd9a87	0.092579894
9	0x3e159a86	0.14609727
10	0x3df09c05	0.11748508
11	0xbdb37756	-0.08762996
12	0xbdd34dda	-0.103175834
13	0x3c66c507	0.014085061
14	0x3e33e6d0	0.17568517
15	0x3bc2569e	0.0059307357
16	0x3e6165d3	0.22011499
17	0x3e3c1fca	0.18371502
18	0xbdc29b5a	-0.09502287
19	0x3df402b2	0.119145766

layer1.0.bn3.running_mean f4 [20]
0	0x3efea4d3	0.49735126
1	0x3ea8f775	0.33001295
2	0xbe538c89	-0.20659079
3	0xbe662fda	-0.22479191
4	0x3e5b3c4d	0.21409722
5	0x3f44db76	0.7689737
6	0xbdfa5c65	-0.12224654
7	0x3ee96e29	0.45591858
8	0x3e9c5397	0.30532524
9	0x3d3b455e	0.04572045
10	0x3f419564	0.75618577
11	0xbe9d870f	-0.30767104
12	0x3f41f54c	0.7576492
13	0x3e84be22	0.2592631
14	0x3e21ea69	0.15812077
15	0x3ee8f92e	0.4550261
16	0xbf2238e1	-0.6336804
17	0xbe4639c4	-0.19357973
18	0xbc82d121	-0.015968861
19	0x3ed4762e	0.41496414

layer1.0.bn3.running_var f4 [20]
0	0x3f000588	0.5000844
1	0x3f7a0f2b	0.97679394
2	0x3ed6ffc5	0.41992012
3	0x3fb98d53	1.4496254
4	0x3f136438	0.57574797
5	0x3f974b15	1.1819788
6	0x3faf193e	1.3679578
7	0x3f16740b	0.5877082
8	0x3f30ba79	0.69034535
9	0x4016a0e5	2.3535702
10	0x3f96f2c0	1.1792831
11	0x3fd2b450	1.6461277
12	0x3f05c6cd	0.5225647
13	0x3fa3ad70	1.2787304
14	0x3f063077	0.524177
15	0x3fec7aff	1.8475035
16	0x3f9deccc	1.233789
17	0x3f4f352a	0.80940497
18	0x3fd42b9a	1.6575806
19	0x3f722870	0.9459295

layer1.1.conv1.weight f4 [20, 20, 1]
0	0xbd2228a3	-0.039589535
1	0x3e807a6b	0.25093397
2	0x3f04a4ac	0.5181377
3	0x3c8b8e22	0.017035548
4	0xbe34c7e2	-0.17654374
5	0x3d7db19f	0.06193697
6	0xbe110d17	-0.1416515
7	0x3eb85aaf	0.36006686
8	0x3eda66a7	0.42656443
9	0xbd7487b3	-0.059699725
10	0xbeb029a4	-0.3440677
11	0x3d86079e	0.065444216
12	0x3dc36fed	0.095428325
13	0xbea80907	-0.32819387
14	0xbd8bdd65	-0.06829337
15	0xbe552f47	-0.20818816
16	0x3e959734	0.2921692
17	0xbe008920	-0.12552309
18	0x3e4f84bc	0.20265478
19	0x3d3f3ebb	0.046690684
20	0xbe114c5d	-0.14189287
21	0x3ddcbb8e	0.10777961
22	0x3c727e19	0.014800572
23	0xbe388958	-0.18021142
24	0x3c97fdf0	0.018553704
25	0x3eaaf058	0.33386493
26	0xbe769725	-0.24081095
27	0x3e0a264d	0.13491173
28	0x3c3726b4	0.011178661
29	0xbe8dfa58	-0.2773006
30	0xbdc606b7	-0.096692495
31	0xbf0cce9f	-0.5500278
32	0x3e10a859	0.1412672
33	0xbd8b2ccc	-0.06795654
34	0xbc60ef95	-0.013728996
35	0x3e1841e3	0.14868884
36	0x3eb679cc	0.356398
37	0xbe648790	-0.22317338
38	0xbef2de67	-0.47435305
39	0xbf30431a	-0.6885239
40	0x3a8f8809	0.0010950576
41	0xbf27d229	-0.65555054
42	0x3d776ad8	0.06040463
43	0x3d5eb33c	0.05437015
44	0xbf5dee9e	-0.86692226
45	0xbea17648	-0.31535554
46	0x3e409753	0.18807726
47	0x3e6e56bc	0.23275274
48	0x3e7d9b0c	0.24766177
49	0xbe3a8616	-0.18215212
50	0x3f2e9664	0.6819823
51	0xbed19f66	-0.40941924
52	0x3f0736cd	0.52817994
53	0x3e02d5bb	0.12776844
54	0x3baf70de	0.005354031
55	0xbf093c6a	-0.5360781
56	0x3ed0c524	0.40775406
57	0xbb780d4d	-0.0037849725
58	0xbe4046da	-0.18777028
59	0x3f2ec5a1	0.6827031
60	0x3eeb0c9b	0.45908055
61	0xbe1f214e	-0.15540048
62	0x3d966424	0.07343319
63	0x3e63ad6f	0.22234128
64	0x3e8bf68d	0.2733654
65	0x3e146d7d	0.14494891
66	0x3e55d1a9	0.2088076
67	0x3e854646	0.26030177
68	0xbebeb032	-0.372438
69	0xbdaeb505	-0.085306205
70	0xbe0af004	-0.13568121
71	0xbe5639d6	-0.209205
72	0xbd566169	-0.05233899
73	0x3ea525b0	0.32255316
74	0xbf2f8a6e	-0.685706
75	0x3c898faa	0.016792137
76	0x3ebd2659	0.3694332
77	0xbe99c74a	-0.30034858
78	0x3e87f8b4	0.26556933
79	0xbc6c073c	-0.014406022
80	0xbf061652	-0.5237781
81	0xbf19a256	-0.6001333
82	0xbdf5fc48	-0.120110095
83	0x3da93c94	0.082635075
84	0x3cb9b767	0.02267046
85	0x3e8fc923	0.28083143
86	0x3eafca4f	0.34334037
87	0xbe08ca6a	-0.13358465
88	0x3ebc59a2	0.36787134
89	0xbf128dd5	-0.5724767
90	0xbef4c8b3	-0.4780937
91	0x3f45882e	0.7716092
92	0xbf64e30f	-0.89408964
93	0x3dad80f1	0.08471859
94	0x3ebe15c6	0.37125987
95	0xbeb5f2c3	-0.35536775
96	0xbeb45b60	-0.35225964
97	0xbdbd9914	-0.09257713
98	0xbec0a2b5	-0.37624136
99	0xbe291526	-0.16511974
100	0x3f0108cc	0.5040405
101	0xbcb41cb4	-0.021986343
102	0x3ea4c80b	0.3218387
103	0xbeb03850	-0.34417963
104	0x3de4d99d	0.11174319
105	0xbe1159ca	-0.14194408
106	0xbe22118c	-0.15827006
107	0xbe55165d	-0.20809312
108	0x3df57b1c	0.11986372
109	0xbee8038d	-0.4531521
110	0xbf1edeb8	-0.6205859
111	0xbf135e05	-0.5756534
112	0xbeb607b4	-0.35552752
113	0xbe005d45	-0.1253558
114	0xbe80d354	-0.2516123
115	0xbe3affa7	-0.18261586
116	0x3f274a8f	0.6534814
117	0x3e7c52be	0.24640939
118	0x3f3c1a34	0.7347748
119	0xbe26b0e4	-0.16278416
120	0x3e242854	0.16031009
121	0x3e92ffff	0.28710935
122	0x3ee26464	0.44217217
123	0xbe912cdc	-0.28354537
124	0x3d236859	0.039894436
125	0xbf3076b0	-0.689311
126	0x3eed98c0	0.46405602
127	0xbd8e0c0d	-0.06935892
128	0xbe4ecc4d	-0.20195122
129	0xbc96dac3	-0.01841486
130	0xbe03ba69	-0.12864079
131	0xbe1631b7	-0.14667402
132	0xbe28bc33	-0.16478042
133	0x3e4e82e7	0.20167123
134	0x3da5398b	0.08067616
135	0x3eaa42dc	0.33254135
136	0x3ea1f2bf	0.31630513
137	0x3df0c57e	0.11756419
138	0xbee90541	-0.4551182
139	0x3ea9346d	0.3304781
140	0x3f143d81	0.5790635
141	0x3e0608af	0.1308925
142	0xbf5700e4	-0.83985734
143	0x3e5d894c	0.21634406
144	0x3d595e90	0.053068697
145	0xbeb63dd6	-0.35594052
146	0x3e61f0b8	0.22064483
147	0xbc85ae67	-0.016318513
148	0x3e122dbb	0.14275257
149	0xbe02b250	-0.12763333
150	0x3eed2e35	0.46324316
151	0x3ee3d275	0.44496503
152	0xbf117c42	-0.5683023
153	0xbede18c2	-0.43378264
154	0xbe4c448f	-0.19948028
155	0xbe98b887	-0.29828283
156	0x3de27aa2	0.110585466
157	0x3de1e923	0.110307954
158	0xbf3d8ead	-0.7404583
159	0x3df7ea1c	0.121052
160	0xbf1342ba	-0.5752369
161	0xbf3b20a6	-0.7309669
162	0xbd02701f	-0.03184521
163	0xbda4a2be	-0.08038853
164	0xbe406cb1	-0.18791462
165	0xbe808674	-0.2510258
166	0x3d08b169	0.033372317
167	0xbed0418c	-0.40675008
168	0xbe0dec63	-0.13859706
169	0xbebb7587	-0.36613104
170	0x3ca4b80a	0.020107288
171	0x3e61d432	0.22053602
172	0xbec01c61	-0.3752165
173	0xbeaa1375	-0.3321797
174	0x3e70004f	0.23437618
175	0xbf354de2	-0.70821965
176	0xbeb5cef7	-0.35509464
177	0x3f12b200	0.57302856
178	0xbe247b4d	-0.1606266
179	0xbf0394f3	-0.51399153
180	0xbe305b1f	-0.1722226
181	0x3e28d686	0.16488084
182	0x3ddc341d	0.10752127
183	0x3e1482e4	0.14503056
184	0x3e102a0d	0.14078541
185	0xbe06180c	-0.1309511
186	0xbe8ce5cc	-0.2751907
187	0xbde9dd01	-0.11419106
188	0x3d98cc71	0.07460869
189	0x3de72907	0.11287122
190	0xbe2f4ade	-0.17118403
191	0xbe450d51	-0.19243361
192	0xbf0b32ab	-0.5437419
193	0xbe03ffe8	-0.12890589
194	0xbf181bdc	-0.5941751
195	0x3efd0e08	0.49424767
196	0x3e2b4063	0.1672378
197	0xbf001045	-0.50024825
198	0xbd1246c5	-0.035712022
199	0x3e89d192	0.26917702
200	0x3e20683d	0.15664764
201	0x3f4e4429	0.80572754
202	0xbd1c30c6	-0.03813245
203	0xbe6f5766	-0.23373184
204	0xbd93107d	-0.07180879
205	0xbd4e3aac	-0.050348923
206	0xbc73545c	-0.014851656
207	0xbdd68c94	-0.10476032
208	0x3d8b666f	0.06806647
209	0x3ea61de3	0.32444677
210	0xbde512be	-0.111852154
211	0x3ecfa44a	0.4055503
212	0xbe4bdc48	-0.1990825
213	0xbf7a027f	-0.9766006
214	0x3c39a1c9	0.0113300765
215	0xbf1bb355	-0.60820514
216	0xbd9c87e3	-0.07643106
217	0x3f2d733f	0.67753977
218	0xbd9ab2f0	-0.07553661
219	0x3b939672	0.0045040185
220	0x3e81280b	0.25225863
221	0xbe9733b4	-0.29531634
222	0xbe272521	-0.16322757
223	0x3e6a6aa8	0.22892249
224	0x3f48b1f8	0.7839656
225	0x3dc3f5ac	0.095683426
226	0x3e13b450	0.14424253
227	0x3e690be4	0.22758442
228	0x3ed48ff0	0.41516066
229	0x3df9a5fa	0.12189861
230	0xbe0d42b1	-0.13794972
231	0xbe49cb2d	-0.19706412
232	0xbe665c6c	-0.22496194
233	0xbcdf9876	-0.027294379
234	0xbeba6b59	-0.36410025
235	0xbe97d9a8	-0.29658246
236	0xbebbf4ac	-0.36710107
237	0x3ebac7dd	0.3648061
238	0x3d55f0c3	0.05223156
239	0x3ec69142	0.38782698
240	0xbe879f17	-0.26488563
241	0xbdd91231	-0.10599173
242	0xbdfe0272	-0.1240281
243	0x3ec4f34c	0.3846687
244	0xbdbeb3bb	-0.093116246
245	0x3d2d7657	0.042349186
246	0xbf461027	-0.77368397
247	0xbbeea6c7	-0.007283065
248	0xbe751f62	-0.23937753
249	0xbea2f3c7	-0.31826612
250	0x3dfbd199	0.12295837
251	0x3ebe2771	0.37139466
252	0xbef3976b	-0.4757646
253	0x3e424bc0	0.18974209
254	0xbe89a613	-0.26884517
255	0xbe74a145	-0.23889644

layer1.1.bn1.weight f4 [20]
0	0x3f7e71e4	0.99392533
1	0x3f92e3f1	1.1475812
2	0x3f8013d3	1.000605
3	0x3f509c67	0.8148865
4	0x3f6eff45	0.9335826
5	0x3f8aa6e3	1.083218
6	0x3f8ad3d7	1.0845898
7	0x3f88fde9	1.0702487
8	0x3f7c933d	0.9866217
9	0x3f88a12d	1.0674187
10	0x3f7478db	0.9549691
11	0x3f7b57d7	0.9818091
12	0x3f68c9a2	0.9093267
13	0x3f737f12	0.9511577
14	0x3f92e72f	1.1476802
15	0x3f6834b0	0.90705395
16	0x3f8cef5d	1.1010548
17	0x3f9202c6	1.1407096
18	0x3f2f9760	0.68590355
19	0x3f635168	0.8879609

layer1.1.bn1.bias f4 [20]
0	0x3d9f2568	0.077708066
1	0x3d8da35f	0.06915926
2	0x3e916987	0.28400823
3	0xbda4e823	-0.08052089
4	0xbc08c512	-0.0083477665
5	0xbcce1256	-0.025155228
6	0x3d80e5c0	0.06293821
7	0xbd92d133	-0.07168808
8	0xbb787f43	-0.003791765
9	0x3e1878fa	0.14889899
10	0x3d81ec51	0.06343902
11	0x3dfb9087	0.12283426
12	0xbe0012e4	-0.12507206
13	0x3d693ad0	0.056940854
14	0x3bcc9ac0	0.0062440336
15	0xbbe86353	-0.0070919185
16	0x3e361e86	0.17785081
17	0x3bacd934	0.005274916
18	0x3e197405	0.14985664
19	0x3df2d71f	0.11857437

layer1.1.bn1.running_mean f4 [20]
0	0x3ee491fd	0.4464263
1	0xbfa28684	-1.2697301
2	0x3d9dc065	0.07702712
3	0x3f25633a	0.6460453
4	0xbffecb06	-1.9905708
5	0xbed9a65d	-0.42509738
6	0x3f54566e	0.8294438
7	0xbf2a80c8	-0.66602755
8	0xc04c0b83	-3.1882026
9	0xbf270593	-0.6524288
10	0xbe024809	-0.12722792
11	0x3f339a7f	0.7015762
12	0xbf85e579	-1.0460654
13	0x3e3d4514	0.18483382
14	0x3fe38312	1.7774374
15	0x3fc0124a	1.5005581
16	0x3ebedd4d	0.37278214
17	0xc0186abd	-2.3815148
18	0xbd7e7613	-0.062124323
19	0x3fcfc808	1.623292

layer1.1.bn1.running_var f4 [20]
0	0x3f5cfdef	0.8632497
1	0x3f8b31fb	1.0874628
2	0x40354057	2.832052
3	0x3fdefc22	1.7420695
4	0x4057ea2f	3.3736684
5	0x409b388d	4.850653
6	0x3fb0da54	1.3816628
7	0x40ca3c17	6.319835
8	0x40c93187	6.287296
9	0x402a9c15	2.6657765
10	0x40b14562	5.5397196
11	0x3fd323b7	1.6495274
12	0x40128949	2.2896292
13	0x3f901e45	1.1259238
14	0x402edbf1	2.7321742
15	0x3fced6f3	1.6159347
16	0x406bf543	3.6868446
17	0x40882169	4.2540784
18	0x4000800e	2.0078158
19	0x3ff17fe9	1.886716
