models/model_B4t2_3000_tot32.ckpt (torch_old, 304452 bytes, 143 tensors)

conv1.weight f4 [20, 1, 19]
0	0x3cf9c591	0.030489715
1	0x3b6899e3	0.0035492114
2	0x3cf61817	0.030040784
3	0x3d60948e	0.054829173
4	0x3c2fffd0	0.010742143
5	0x3cd05371	0.025430413
6	0x3b9c5962	0.0047713974
7	0x3c089e06	0.008338457
8	0xbca70f37	-0.020392997
9	0xbe65cac0	-0.22440624
10	0xbebbb4b5	-0.36661306
11	0xbe30688a	-0.17227378
12	0x3d3a57f8	0.04549405
13	0x3e57463a	0.21022883
14	0x3e8b570a	0.27214843
15	0x3d994703	0.074842475
16	0x3c3c0851	0.011476592
17	0xbc36df58	-0.011161648
18	0xbb7517e0	-0.0037398264
19	0xbc7797d7	-0.015111885
20	0x3c37e5e4	0.011224244
21	0x3d5927f4	0.053016618
22	0x3cd2177e	0.025645968
23	0x3d0d87e6	0.03455343
24	0x3bb045f3	0.0053794323
25	0x3cfa2b68	0.030538276
26	0xbc8620ba	-0.016373027
27	0x3d2349a3	0.039865147
28	0x3b41351e	0.0029481123
29	0xbe1aeaa5	-0.15128572
30	0xbdc117fe	-0.09428404
31	0x3e19ab76	0.15006813
32	0x3ee2244a	0.4416831
33	0x3ec57a73	0.38569984
34	0x3e396125	0.18103464
35	0xbd9cc51c	-0.07654783
36	0xbe0e414f	-0.13892101
37	0xbdc26387	-0.094916396
38	0xbbe7be17	-0.007072221
39	0x3cf1593c	0.029461496
40	0xbd2d9862	-0.04238165
41	0x3d99e993	0.07515254
42	0x3e225ad7	0.15854965
43	0x3e35b476	0.17744622
44	0xbd98ab55	-0.07454554
45	0xbf08b59f	-0.5340213
46	0xbe03788e	-0.12838957
47	0x3d8d79e5	0.06908015
48	0x3de2c624	0.110729486
49	0xbd809521	-0.06278444
50	0xbcd6e041	-0.02622998
51	0x3cfa79b7	0.030575616
52	0xbcc32ab0	-0.023824066
53	0x3ba05083	0.0048924102
54	0x3cab2751	0.020892771
55	0x3b41461c	0.0029491251
56	0xbbc434df	-0.005987748
57	0x3d3c96ab	0.046042126
58	0xbd2ef3b3	-0.04271288
59	0xbdeb9561	-0.11503101
60	0xbe213edc	-0.15746635
61	0xbe4f23e0	-0.20228529
62	0xbde9eaad	-0.11421714
63	0xbe87469c	-0.26421058
64	0xbe874c72	-0.2642551
65	0xbeb171ba	-0.3465708
66	0xbdf622e5	-0.12018374
67	0xbdbbc580	-0.091685295
68	0xbdbd5ad3	-0.09245839
69	0x3da76a5b	0.081745826
70	0x3d54bfdb	0.05194078
71	0x3d995c2d	0.07488284
72	0xbd0a6a37	-0.0337927
73	0xbc87a5cb	-0.016558548
74	0xbd58a0e9	-0.05288783
75	0xbe225026	-0.15850887
76	0xbc68fef6	-0.014220944
77	0x3b39208e	0.0028248164
78	0xbcaeeabc	-0.021352164
79	0xbccd6ae8	-0.025075391
80	0x3bdba42d	0.006702921
81	0xbcd9cab4	-0.026585914
82	0x3d07dcca	0.033169545
83	0x3d53744d	0.051624585
84	0x3dc0bfef	0.094116084
85	0x3ec84265	0.39113155
86	0x3eaadc5b	0.33371243
87	0x3df9cf01	0.12197686
88	0xbd37179b	-0.044700246
89	0xbdb2148e	-0.08695327
90	0xbdc6df15	-0.09710518
91	0xbdb109ec	-0.086444706
92	0xbddc8501	-0.10767556
93	0xbdd1442a	-0.102180794
94	0xbda8559f	-0.08219456
95	0xbc38eac0	-0.0112864375
96	0x3c3ee30a	0.01165081
97	0x3dc79988	0.09746081
98	0x3e41c2f2	0.18922022
99	0x3e17c770	0.14822173
100	0xbe4a5e9d	-0.19762655
101	0xbf0bae54	-0.5456288
102	0x3b4a623e	0.003088131
103	0x3de7fb8c	0.11327276
104	0xbd174eac	-0.03694026
105	0xbbc75132	-0.0060826773
106	0x3c81ab9a	0.015828896
107	0x3c5286ed	0.012849552
108	0xbc7e8e44	-0.015536848
109	0x3c1474b4	0.009061027
110	0x3beb6076	0.00718313
111	0xb9e95eed	-0.00044511948
112	0xbad33c41	-0.001611598
113	0xbb9138c4	-0.004431816
114	0x3cc78ddf	0.024359642
115	0xbccdecbe	-0.025137302
116	0x3d9a055b	0.07520553
117	0x3d41fe8a	0.047361888
118	0x3c926dbb	0.01787459
119	0x3df2442c	0.11829409
120	0x3e0e2e56	0.13884863
121	0xbe5e3d8c	-0.21703166
122	0xbf8997ae	-1.0749414
123	0xbdaf4838	-0.085586965
124	0x3cd11061	0.025520505
125	0x3d842203	0.064518
126	0x3a782e4a	0.0009467347
127	0xbbe11c1e	-0.006869807
128	0x3d371f41	0.04470754
129	0x3cb45593	0.022013461
130	0xbca7be5e	-0.020476516
131	0xbc7a1271	-0.015263186
132	0x3ac20639	0.001480288
133	0xbd06d24a	-0.03291539
134	0x3d1a0b72	0.03760857
135	0xbcaa8506	-0.020815384
136	0x3a9436a2	0.0011307786
137	0x3bcc164d	0.0062282444
138	0x3c559997	0.013037107
139	0xbdac0480	-0.08399296
140	0xbb8aafdd	-0.0042323903
141	0x3c2e8e4f	0.010654046
142	0xbd17010a	-0.036866225
143	0xbd29bf7c	-0.04144238
144	0xbd89ee0a	-0.067348555
145	0xbd8aaf77	-0.067717485
146	0x3e558b28	0.20853865
147	0x3f74b297	0.95585006
148	0x3d8dbbee	0.0692061
149	0xbde638be	-0.112412915
150	0x3c5b48f7	0.013384095
151	0xbb6c2254	-0.0036031203
152	0xbbf81ade	-0.007571562
153	0x3be68bbf	0.007035702
154	0x3d8fad29	0.070154496
155	0x3d23e640	0.040014505
156	0x3dd733ab	0.10507902
157	0x3e823258	0.25429034
158	0x3cdce527	0.026964737
159	0xbdfd44c7	-0.12366634
160	0xbf0a328a	-0.53983366
161	0x3dcf9b88	0.10137087
162	0xbdb19f31	-0.086729415
163	0xbdb863a2	-0.090033785
164	0x3c9ac63b	0.018893352
165	0xba3ce3ed	-0.00072055944
166	0xbd365361	-0.04451311
167	0x3c9018e8	0.017590001
168	0xbb00e9d9	-0.0019670634
169	0xbc11a3b5	-0.008889128
170	0xbc9c476f	-0.019077031
171	0xbca35b22	-0.019940916
172	0x3b95f86b	0.004576733
173	0xbaf9dff7	-0.0019063939
174	0xbbe63cb7	-0.0070262807
175	0x3cafb3de	0.021448072
176	0xbc507615	-0.012723465
177	0x3cb871c7	0.02251519
178	0x3bb3ad5b	0.005483312
179	0xbbe7259f	-0.0070540453
180	0x3d2f824b	0.042848866
181	0xbd5cd7ce	-0.053916745
182	0xbeced483	-0.4039651
183	0xbec38fad	-0.38195553
184	0xbdaf91fd	-0.08572767
185	0x3e20b274	0.15693074
186	0x3e578a22	0.21048787
187	0x3dcffc69	0.10155565
188	0x3cd026fc	0.025409214
189	0xbb4874c6	-0.003058718
190	0xbcca71eb	-0.024712523
191	0xbc11403b	-0.008865411
192	0x3d0b67f7	0.034034695
193	0xbc87615b	-0.016525915
194	0xbd562b1e	-0.052287214
195	0xbd901480	-0.0703516
196	0xbe197e9a	-0.14989701
197	0xbde086b7	-0.10963195
198	0xbbbc9875	-0.005755479
199	0x3f1ffcb6	0.6249498
200	0x3eaddbc8	0.33956742
201	0xbd12f5f9	-0.03587911
202	0xbd6e68d2	-0.058205433
203	0x3bda542e	0.006662867
204	0xbc41f379	-0.011837834
205	0x3b2d5ac2	0.00264518
206	0x3cb381ed	0.02191254
207	0xbcaf7e22	-0.02142245
208	0x3cd98296	0.026551526
209	0x3c3d43a5	0.011551772
210	0x3ca026e5	0.019549796
211	0x3c9a0548	0.018801346
212	0x3c54107b	0.012943382
213	0x3c25fa0f	0.010130419
214	0xbc8b3e38	-0.016997442
215	0xbcbe96c4	-0.02326525
216	0x3dd109be	0.10206936
217	0x3e7b8a9e	0.24564597
218	0x3e203a7f	0.15647314
219	0xbdafae6f	-0.085781924
220	0xbe881be7	-0.26583788
221	0xbe4d29ac	-0.20035428
222	0xbe8575b2	-0.26066357
223	0xbed501ae	-0.41602844
224	0xbe829f94	-0.25512373
225	0xbdf29bdc	-0.11846134
226	0xbcd05abf	-0.025433896
227	0xbc80fee0	-0.015746534
228	0x3dd3c06e	0.103394374
229	0x3d0a1737	0.033713546
230	0x3cfc274c	0.030780457
231	0x3d4e1f54	0.050322846
232	0x3d83ebcf	0.06441461
233	0xbd5aebb9	-0.05344746
234	0x3dc6d44b	0.097084604
235	0x3f349b6e	0.70549667
236	0x3e5079b4	0.20358926
237	0xbe1e69a3	-0.15469985
238	0xbda7420d	-0.08166895
239	0x3e238e88	0.1597234
240	0xbdf2cd16	-0.11855523
241	0xbd49d26b	-0.049272936
242	0x3cf75cd8	0.030195639
243	0xbbb940ee	-0.005653492
244	0xbd1ca423	-0.03824247
245	0x3cfcabcf	0.030843643
246	0x3d0fd4ba	0.03511498
247	0x3cbf64b8	0.023363456
248	0xbb657d39	-0.0035017265
249	0xbca639f6	-0.02029131
250	0x3d530010	0.05151373
251	0xbc5f81f7	-0.013641826
252	0x3cc36792	0.023853097
253	0x3d8c984e	0.06864987
254	0xbca09b9d	-0.019605452
255	0xbc9964a7	-0.018724753

conv1.bias f4 [20]
0	0x3e1cbc6f	0.15306257
1	0x3dd1721c	0.10226843
2	0x3dd4dea4	0.10394028
3	0x3c1cbae7	0.009566045
4	0x3e1e3393	0.15449362
5	0xbcabded3	-0.020980274
6	0xbe047d9b	-0.1293854
7	0x3e85ce38	0.26133895
8	0xbd5b25f0	-0.053502977
9	0x3dc998bd	0.09843586
10	0xbdbb89d4	-0.09157148
11	0xbca04e0f	-0.019568471
12	0x3d8106a0	0.06300092
13	0x3d89caf8	0.06728166
14	0xbd8be65a	-0.068310454
15	0x3cd252c9	0.02567424
16	0xbc4e188c	-0.012579095
17	0x3e2f3ab4	0.17112237
18	0xbe3a6c19	-0.18205298
19	0xbe975e1c	-0.29563987

bn1.weight f4 [20]
0	0x3f8bd2da	1.0923722
1	0x3f48d743	0.78453463
2	0x3f5ad790	0.8548517
3	0x3f856cc3	1.0423816
4	0x3f877e28	1.0585375
5	0x3f76b5c9	0.9637113
6	0x3f9911d3	1.1958565
7	0x3f8480d7	1.0351819
8	0x3f6bca46	0.9210552
9	0x3f7ea2bf	0.9946708
10	0x3f8a17f9	1.0788566
11	0x3f747dde	0.9550456
12	0x3f596bcf	0.8493013
13	0x3f7e5c7d	0.99359876
14	0x3f4deffe	0.80444324
15	0x3f715dad	0.9428356
16	0x3f8c1cdf	1.0946311
17	0x3f7f083a	0.9962193
18	0x3f3f3ed6	0.74705255
19	0x3f69b281	0.91288

bn1.bias f4 [20]
0	0xbe8f3006	-0.27966326
1	0x3eda121b	0.42591938
2	0x3d01d8ee	0.03170102
3	0x3de9b985	0.11412338
4	0x3e0f1911	0.13974406
5	0xbe65bac9	-0.22434534
6	0xbf027613	-0.50961417
7	0xbeba42ea	-0.36379176
8	0xbecca71b	-0.3997124
9	0xbe61991d	-0.22031064
10	0xbdfcd85f	-0.12345957
11	0x3d959281	0.07303334
12	0x3dbd5c57	0.09246128
13	0xbe7a4603	-0.2444077
14	0xbe7755e0	-0.24153852
15	0xbcbd4bbd	-0.023107404
16	0x3e57dab0	0.21079516
17	0x3e424ef8	0.18975437
18	0xbe254bce	-0.16142198
19	0xbdb604ee	-0.08887659

bn1.running_mean f4 [20]
0	0x3e1ceb35	0.153241
1	0x3dbe66ee	0.09296976
2	0x3dda5f9c	0.10662767
3	0x3d004adb	0.031321388
4	0x3e1a0c8a	0.15043846
5	0xbc96e41a	-0.018419314
6	0xbdf3c787	-0.11903291
7	0x3e809ad1	0.25118116
8	0xbd4d4694	-0.050116137
9	0x3dd31d6b	0.103083454
10	0xbdc79d93	-0.09746852
11	0xbbcd0d8e	-0.0062577194
12	0x3d4f1b1e	0.05056297
13	0x3d611a83	0.054956924
14	0xbd8ef53a	-0.06980367
15	0x3d0da478	0.034580678
16	0x3bf2fc4b	0.0074153296
17	0x3e19a4c6	0.15004262
18	0xbe337bab	-0.17527644
19	0xbe92e311	-0.28688863

bn1.running_var f4 [20]
0	0x3da6762d	0.08128009
1	0x3e8003a3	0.25002775
2	0x3d6c92b8	0.05775711
3	0x3f76cc30	0.96405315
4	0x3e542920	0.20718813
5	0x3d6e8695	0.058233816
6	0x3ece140b	0.40249667
7	0x3eba53df	0.36392114
8	0x3dc1fec6	0.09472422
9	0x3e041c4e	0.12901422
10	0x3e26495e	0.16238925
11	0x3f1c5b2d	0.61076623
12	0x3ec26fbe	0.37975878
13	0x3ec13c66	0.37741393
14	0x3d5f1c34	0.054470256
15	0x3ef08e3b	0.46983513
16	0x3f804064	1.001965
17	0x3f78da37	0.9720797
18	0x3e3b9e4e	0.18322107
19	0x3f0284b5	0.50983745

fc.weight f4 [2, 67]
0	0x3df7d4e9	0.12101156
1	0xbe4350bb	-0.19073765
2	0xbdeec74f	-0.11659109
3	0xbd749861	-0.059715632
4	0x3e129c28	0.14317381
5	0x3dccc7e9	0.09999067
6	0xbe024de9	-0.12725033
7	0x3d5d4873	0.05402417
8	0xbe10aec9	-0.14129175
9	0x3e128538	0.14308631
10	0x3e1904b2	0.14943197
11	0x3dbe19f6	0.092822954
12	0xbd7a362c	-0.06108682
13	0xbe08a318	-0.13343465
14	0xbc0052bd	-0.007832226
15	0xbdd07f8e	-0.10180579
16	0xbd528b36	-0.051402293
17	0x3e0ac3b0	0.13551211
18	0x3dda4304	0.106573135
19	0x3c0c6b81	0.008570553
20	0xbdd1aace	-0.102376565
21	0xbe0a6013	-0.13513212
22	0x3e5e0716	0.2168239
23	0xbdac8a2c	-0.08424792
24	0xbdb45fc9	-0.08807332
25	0xbbfc2e1c	-0.0076959264
26	0x3cf11c38	0.029432401
27	0xbe41743c	-0.18891996
28	0xbe46bcca	-0.19407955
29	0x3ce219e1	0.02760023
30	0xbe0d7df3	-0.13817577
31	0xbe23b292	-0.15986088
32	0xbe211f6e	-0.15734646
33	0xbb879c7a	-0.0041385265
34	0x3e4ea16b	0.20178764
35	0x3e0c47ae	0.13699219
36	0xbe5a76c4	-0.21334368
37	0x3e0190ba	0.12652865
38	0x3d26cdb4	0.040723518
39	0x3e5fd446	0.2185832
40	0xbd3d3dbe	-0.04620146
41	0xbdf53744	-0.11973432
42	0x3db97ce0	0.09057021
43	0xbe19522b	-0.14972751
44	0x3e4488e8	0.1919285
45	0xbe2f2b51	-0.17106368
46	0x3e20fed8	0.15722215
47	0xbdd09af9	-0.10185809
48	0x3e5f804d	0.21826287
49	0x3c782dcb	0.015147637
50	0xbde8b182	-0.11361982
51	0xbe682868	-0.22671664
52	0xbe3e029f	-0.18555687
53	0x3e3cd037	0.18438803
54	0xbdf9d2a2	-0.12198378
55	0x3e4778ea	0.19479719
56	0xbe44f614	-0.19234496
57	0x3db384de	0.08765577
58	0x3db1c621	0.08680368
59	0x3d05964c	0.032614037
60	0x3cb56a05	0.02214528
61	0x3e64429b	0.22291033
62	0x3d233864	0.0398487
63	0x3dbf4345	0.093390025
64	0x3e08eeac	0.13372296
65	0x3e67e3bf	0.22645472
66	0x3d98742e	0.074440345
67	0xbdf85fa4	-0.12127617
68	0x3bf5c437	0.0075001973
69	0x3ca1bf75	0.019744614
70	0x3e43988a	0.19101158
71	0xbe5a4440	-0.21315098
72	0xbe0def54	-0.13860828
73	0x3e1943cd	0.1496727
74	0xbdea5712	-0.114423886
75	0x3e0b3ac7	0.1359664
76	0x3d868935	0.06569139
77	0xbdc13c61	-0.094353445
78	0xbe5e8670	-0.21730971
79	0x3e2d5477	0.16926752
80	0x3de37da8	0.111079514
81	0xbdcfb2b2	-0.10141505
82	0x3e6ab273	0.22919635
83	0x3e041882	0.12899974
84	0xbe5a6131	-0.21326138
85	0xbd597f32	-0.05309982
86	0xbe4db6e0	-0.20089293
87	0xbd27ab53	-0.040934872
88	0x3e495169	0.19659962
89	0xbe5dfd04	-0.21678549
90	0x3e3fa8eb	0.18716781
91	0x3dd26985	0.102740325
92	0x3e2a8965	0.16653974
93	0xbdbd8dd4	-0.09255567
94	0x3e5f5738	0.21810615
95	0x3e3e6e87	0.1859685
96	0x3dc6ff39	0.097166486
97	0x3d952a17	0.072834186
98	0x3e62befc	0.22143167
99	0x3d08a4cd	0.03336029
100	0x3e14222d	0.14466162
101	0xbdc25dd0	-0.094905496
102	0xbe1def25	-0.15423258
103	0x3e5f7138	0.21820533
104	0x3cdc57c3	0.026897317
105	0xbe114f4b	-0.14190404
106	0xbe56fc70	-0.20994735
107	0x3e13b442	0.14424232
108	0x3e0bb97a	0.13644972
109	0xbdc5c656	-0.0965697
110	0x3d9773f1	0.07395161
111	0xbd8e45ee	-0.06946932
112	0x3daed6b8	0.08537048
113	0xbe0e34ad	-0.13887282
114	0xbc9ce330	-0.0191513
115	0xbe2ef253	-0.17084627
116	0xbe553681	-0.20821573
117	0x3e3f286d	0.18667765
118	0x3e5e0d3f	0.2168474
119	0x3e57c023	0.21069388
120	0xbcf01b1b	-0.0293098
121	0x3d6aa07e	0.057281964
122	0xbe5f6aa9	-0.21818031
123	0x3ce5d1fc	0.02805423
124	0xbc3ec73a	-0.011644179
125	0xbe38dd4c	-0.18053168
126	0xbcec498e	-0.028843667
127	0xbe30b045	-0.17254741
128	0xbe8233f7	-0.2543027
129	0xbcb951bd	-0.022621984
130	0xbe626969	-0.22110523
131	0xbdd84599	-0.1056015
132	0xbd837936	-0.064196035
133	0xbe446bba	-0.1918172

fc.bias f4 [2]
0	0xbd96d17e	-0.07364176
1	0xbd3796e3	-0.04482163

layer1.0.conv1.weight f4 [20, 20, 1]
0	0x3f17f61c	0.5935991
1	0x3b71ba4b	0.003688472
2	0x3f1a18bf	0.6019401
3	0xbe10733a	-0.14106455
4	0x3e7149c9	0.23563303
5	0x3e7fb391	0.24970843
6	0x3d96b7df	0.073592894
7	0x3ea25b79	0.31710413
8	0xbdae9c2d	-0.08525882
9	0x3e009b0a	0.12559143
10	0x3f13c8d2	0.577283
11	0xbf2bb854	-0.6707814
12	0x3e4266b8	0.18984497
13	0xbe8adb3a	-0.27120382
14	0x3dc74c92	0.097314015
15	0xbe91a388	-0.28445077
16	0x3e77bbf1	0.24192788
17	0x3e0e4894	0.13894874
18	0xbeb441b3	-0.35206375
19	0xbee79002	-0.45227057
20	0x3e72033c	0.23634046
21	0xbee45978	-0.4459951
22	0x3df0caf1	0.11757458
23	0xbc8914fb	-0.016733637
24	0xbe9a6740	-0.30156898
25	0x3dab7fb9	0.083739705
26	0x3e986cfc	0.29770648
27	0xbeaa19e7	-0.33222887
28	0xbebf41bf	-0.37354848
29	0xbe91b49c	-0.28458107
30	0x3e3002b9	0.17188539
31	0xbf7ed895	-0.9954923
32	0xbe2fa661	-0.17153312
33	0xbd8febc2	-0.07027389
34	0x3e2e9c5b	0.17051832
35	0xbf1e9f32	-0.6196166
36	0xbe94736a	-0.28994304
37	0x3ebfd1a3	0.37464628
38	0xbefeab07	-0.49739859
39	0xbe890929	-0.267648
40	0x3e7176ed	0.23580523
41	0xbe54d558	-0.20784509
42	0x3e8f15a9	0.27946213
43	0x3e7e2ff9	0.24822988
44	0xbf04e826	-0.5191673
45	0xbe986f23	-0.2977229
46	0x3f7cf77f	0.9881515
47	0xbe3e2a7c	-0.18570894
48	0x3d37e137	0.044892516
49	0xbe2b63b2	-0.1673725
50	0xbe6744ba	-0.22584811
51	0x3ca10e99	0.019660281
52	0xbd6bdeda	-0.057585575
53	0xbe970c17	-0.2950141
54	0x3dd329bc	0.103106946
55	0x3f0116ee	0.5042561
56	0xbd243412	-0.04008872
57	0xbedf6350	-0.43630457
58	0xbee6754b	-0.45011362
59	0xbf251793	-0.64489096
60	0xbed98f55	-0.42492166
61	0xbeff4f14	-0.4986502
62	0xbec501ff	-0.38478085
63	0x3c9a5ddc	0.018843584
64	0xbf844f6e	-1.033674
65	0xbeec9f98	-0.4621551
66	0xbf0f02b5	-0.55863506
67	0xbe78ba14	-0.24289733
68	0x3e7a6920	0.24454165
69	0x3de068d2	0.10957493
70	0x3d9706cc	0.07374343
71	0xbea1ada7	-0.315778
72	0xbe463d34	-0.19359285
73	0x3f1a8d84	0.60372186
74	0xbf0df029	-0.5544458
75	0x3da2e822	0.07954432
76	0x3e36f4c4	0.17866808
77	0x3e9a42c3	0.3012906
78	0xbe113230	-0.14179301
79	0x3ea3717f	0.31922528
80	0x3f286e74	0.6579354
81	0x3efe0d70	0.49619627
82	0x3d944707	0.0724011
83	0x3e23a16a	0.15979543
84	0x3de81526	0.11332159
85	0x3e87ee4c	0.26548994
86	0x3e2a6a4e	0.16642115
87	0xbdb6ea38	-0.089313924
88	0x3dc9735b	0.098364554
89	0x3f3e9b41	0.7445565
90	0xbd6fe7cb	-0.058570664
91	0x3e63f834	0.2226265
92	0xbee242a1	-0.4419146
93	0x3e662059	0.22473277
94	0xbe1f2d53	-0.15544634
95	0xbe07e694	-0.13271552
96	0x3ebdb7c9	0.3705428
97	0xbe9be47d	-0.3044776
98	0xbbb4654c	-0.0055052396
99	0xbf096791	-0.53673655
100	0x3d9299a4	0.07158211
101	0xbeaa3f06	-0.33251208
102	0x3ddbe09f	0.107362024
103	0xbdd9479f	-0.10609364
104	0xbc372366	-0.011177873
105	0x3e93cff1	0.28869584
106	0x3f225152	0.63405335
107	0xbe9b85d0	-0.30375528
108	0xbe8af9b5	-0.27143636
109	0xbe1148ff	-0.14188002
110	0xbd8b9237	-0.06814998
111	0xbeb4057a	-0.35160428
112	0xbcd63a49	-0.02615084
113	0x3f1eb34e	0.6199235
114	0xbe784844	-0.24246317
115	0xbe31103f	-0.17291354
116	0x3e85acf8	0.26108527
117	0xbe8f7bdd	-0.28024188
118	0x3e2dc9e3	0.16971545
119	0xbeb7dffd	-0.35913077
120	0xbea7c1ca	-0.32765037
121	0x3ebe4ac3	0.37166414
122	0xbeded4cf	-0.43521735
123	0x3e0df6d4	0.13863689
124	0x3e5c0b51	0.21488692
125	0xbecb4208	-0.39698815
126	0x3f17a9e5	0.59243613
127	0xbf20c63b	-0.62802476
128	0xbf29b1f8	-0.66287184
129	0x3ed2e75b	0.41192135
130	0xbf015b57	-0.5053
131	0x3e39cdd7	0.18144928
132	0x3e0317d2	0.12802055
133	0x3e3aa7eb	0.18228118
134	0xbe0fcb24	-0.14042336
135	0x3d8721b4	0.06598225
136	0xbc4f29cb	-0.012644242
137	0x3f487f79	0.7831951
138	0xbd48a1a8	-0.048982292
139	0x3dff1314	0.12454811
140	0x3dbcec47	0.09224754
141	0x3d921d27	0.071344666
142	0xbe803f67	-0.25048372
143	0xbd9016ce	-0.070356
144	0xbe3ba7cf	-0.18325733
145	0xbeebd4da	-0.4606083
146	0x3e48b018	0.19598424
147	0x3eb7b581	0.35880664
148	0x3e06f7e6	0.13180503
149	0xbe8924e5	-0.2678596
150	0x3d561281	0.05226374
151	0xbeba32b4	-0.36366808
152	0xbf5baf47	-0.85814327
153	0x3f43fd28	0.7655816
154	0x3e6557c5	0.22396763
155	0x3e99f92b	0.30072913
156	0xbee2394b	-0.44184336
157	0xbe2334f3	-0.15938167
158	0xbe40012e	-0.1875045
159	0xbc181714	-0.009282846
160	0xbcc07c75	-0.023496846
161	0x3cab5d0f	0.020918397
162	0xbd36a0db	-0.044586997
163	0xbf0f58b2	-0.55994713
164	0xbe852696	-0.26006
165	0x3e506360	0.20350409
166	0xbd2c4f90	-0.042068064
167	0xbe986357	-0.2976329
168	0x3e90db9a	0.28292543
169	0x3ed3ad83	0.41343316
170	0xbf10262e	-0.5630826
171	0xbebfe219	-0.37477186
172	0x3e4398b5	0.19101222
173	0xbe2bc485	-0.16774185
174	0x3e68b964	0.22726971
175	0xbef1e715	-0.47246614
176	0xbad9e220	-0.0016623177
177	0xbec59515	-0.38590303
178	0xbb98a362	-0.0046581486
179	0xbe03b660	-0.1286254
180	0xbe54e29b	-0.20789568
181	0x3dee4652	0.11634506
182	0xbda39da7	-0.07989054
183	0x3dc57a2b	0.09642442
184	0x3dd4cfdb	0.10391208
185	0xbe659cb6	-0.22423062
186	0xbc0e9b7f	-0.008704065
187	0xbee5d06b	-0.44885573
188	0x3dd53430	0.104103446
189	0xbe0697a6	-0.13143787
190	0x3f18ccdf	0.5968761
191	0xbed97459	-0.4247158
192	0x3eae11d8	0.3399799
193	0x3ce73488	0.028223291
194	0x3ef712a8	0.4825642
195	0xbef9dbd3	-0.48800525
196	0xbdf7973c	-0.120893925
197	0xbe6b8856	-0.23001227
198	0xbd348840	-0.04407525
199	0x3eabbbd2	0.33541733
200	0xbe0c6115	-0.13708909
201	0xbd4e3988	-0.050347835
202	0x3e79a040	0.24377537
203	0xbd66e971	-0.05637497
204	0xbed8555c	-0.42252624
205	0x3d64e775	0.055884797
206	0x3e3fe2ad	0.18738814
207	0x3c238369	0.009980061
208	0xbd671e31	-0.056425277
209	0xbec17fd9	-0.37792853
210	0x3eb2cab8	0.34920287
211	0x3e9ac8c9	0.30231312
212	0x3e0d4b61	0.13798286
213	0x3d719fa1	0.058990125
214	0x3e911261	0.28334334
215	0x3e47c9e8	0.19510615
216	0xbf06cfd6	-0.5266088
217	0xbe7fb8ab	-0.24972789
218	0xbf3cfd0e	-0.7382363
219	0x3e9f8852	0.31158692
220	0x3d8a6ba2	0.067588106
221	0xbe167a44	-0.14695078
222	0x3dd7e185	0.10541061
223	0xbdf015c1	-0.11722899
224	0x3e8a7936	0.27045602
225	0x3f579340	0.8420906
226	0xbd369025	-0.04457106
227	0xbf1de03c	-0.6167028
228	0x3dba9be0	0.09111762
229	0x3f5acbb4	0.85467076
230	0xbededac1	-0.4352627
231	0xbe977df0	-0.2958827
232	0x3f2ba8f1	0.6705466
233	0xbeb16983	-0.34650812
234	0x3f062e75	0.5241464
235	0x3ef2169c	0.47282875
236	0x3e45bb11	0.19309641
237	0xbd8a782b	-0.067612015
238	0xbe0e7562	-0.13911965
239	0x3f018372	0.50591195
240	0x3ed0ad6e	0.40757316
241	0x3e4a7386	0.19770631
242	0x3d4706a1	0.048590306
243	0xbcc776ea	-0.024348695
244	0xbe65a563	-0.22426371
245	0xbd210f83	-0.039321434
246	0xbf3d54fd	-0.73957807
247	0x3dbcc884	0.09217933
248	0x3dc95018	0.0982973
249	0x3eae7b02	0.34078223
250	0x3d6b320d	0.05742078
251	0xbcd7eba7	-0.026357485
252	0xbe8debd8	-0.27718997
253	0x3e69d912	0.22836712
254	0xbd50e79e	-0.051002137
255	0x3eb62be5	0.35580364

layer1.0.bn1.weight f4 [20]
0	0x3f728d8d	0.9474724
1	0x3f78be1b	0.9716508
2	0x3f754a44	0.95816445
3	0x3f7c6bce	0.98601997
4	0x3f9de465	1.2335325
5	0x3f712e3f	0.9421119
6	0x3f81726c	1.0113044
7	0x3f48fe5c	0.7851312
8	0x3f567630	0.8377409
9	0x3f81f533	1.0152954
10	0x3f599c93	0.8500454
11	0x3f349dc4	0.7055323
12	0x3f63ae73	0.88938063
13	0x3f57057e	0.83992755
14	0x3f856e54	1.0424294
15	0x3f643bcc	0.8915374
16	0x3f898d45	1.0746237
17	0x3f8a0343	1.0782245
18	0x3f8c4499	1.0958434
19	0x3f67ee57	0.9059805

layer1.0.bn1.bias f4 [20]
0	0x3daa112c	0.083040565
1	0xbd06e172	-0.032929845
2	0x3d5873e2	0.05284489
3	0x3df51229	0.119663544
4	0x3dbe1c0a	0.09282692
5	0xbe2e0b6e	-0.16996548
6	0xbda33c3a	-0.07970472
7	0x3dd77599	0.10520477
8	0x3d1aca1a	0.037790395
9	0x3d056f0e	0.032576613
10	0x3d99b9c5	0.07506136
11	0x3e0dbc86	0.13841447
12	0x3e34cd1f	0.17656372
13	0xbd1e84fd	-0.038701046
14	0x3ebc400b	0.3676761
15	0x3c6c8985	0.014437084
16	0x3dda48c3	0.106584094
17	0x3ea95133	0.33069763
18	0xbe827d64	-0.2548629
19	0x3e8dd51c	0.27701652

layer1.0.bn1.running_mean f4 [20]
0	0x3f34c313	0.7061016
1	0xbfc55c86	-1.5418861
2	0xbf28203b	-0.6567418
3	0xbfc01673	-1.5006851
4	0x3f7fc04a	0.99902785
5	0xbebe1aee	-0.3712992
6	0x3ec2206e	0.37915367
7	0xbf434227	-0.76272815
8	0xbf9689d9	-1.1760818
9	0xbdcda4a6	-0.1004117
10	0xbeaa2c11	-0.33236745
11	0x3f8005c3	1.0001758
12	0x3cb8606f	0.02250692
13	0x3d556773	0.05210061
14	0xbeb23fd6	-0.34814328
15	0xbe43e6d7	-0.19131027
16	0x3fafceb3	1.3734955
17	0xbf4dcf96	-0.80394876
18	0x3f4c8a77	0.7989878
19	0xbef3ef2e	-0.47643417

layer1.0.bn1.running_var f4 [20]
0	0x3fb9996a	1.4499943
1	0x3fd6b306	1.6773384
2	0x3fcb8def	1.590269
3	0x3faaefd3	1.3354439
4	0x401429e2	2.3150563
5	0x3f01d733	0.5071899
6	0x3f4ed883	0.8079912
7	0x3f78aa84	0.97135186
8	0x3f1cb8a5	0.61219245
9	0x3f74558f	0.9544305
10	0x3e70788e	0.23483488
11	0x3ffc52c1	1.9712754
12	0x3ed333ec	0.4125055
13	0x3ed22145	0.41041008
14	0x3fa57e93	1.2929252
15	0x3fc51126	1.5395858
16	0x3fa25e8b	1.2685102
17	0x3f414546	0.7549633
18	0x3fb0ff96	1.3827999
19	0x3f374bc0	0.7159996

layer1.0.conv2.weight f4 [20, 20, 3]
0	0x3e450add	0.19242425
1	0xbdc2634a	-0.09491594
2	0x3d8b4ce6	0.068017766
3	0xbe8e29f0	-0.2776637
4	0x3d12193d	0.0356686
5	0x3e23c8e2	0.159946
6	0xbe94d9be	-0.29072374
7	0xbe07095c	-0.13187164
8	0xbf1c9498	-0.61164236
9	0x3d3afbf8	0.045650452
10	0xbe04152c	-0.12898701
11	0xbd137086	-0.035995983
12	0xbe8c8510	-0.2744527
13	0x3eeb1204	0.45912182
14	0x3e006724	0.12539345
15	0xbde2568e	-0.11051665
16	0x3ddfe127	0.10931616
17	0x3d8fcad3	0.070211075
18	0xbba4475b	-0.005013389
19	0xbe9da8d7	-0.30792877
20	0xbed777c8	-0.42083573
21	0xbe700167	-0.23438035
22	0xbe81fe34	-0.25389254
23	0xbdff5363	-0.12467077
24	0xbecc3fda	-0.39892465
25	0x3e0f8a0e	0.14017507
26	0xbe2851b2	-0.16437414
27	0xbe3463be	-0.17616174
28	0xbcb2b25a	-0.02181356
29	0xbe22b5aa	-0.15889612
30	0x3e6997b0	0.2281177
31	0xbc0a7e4c	-0.008452963
32	0x3d1fe14a	0.03903321
33	0xbc411b8d	-0.011786354
34	0xbd852097	-0.06500357
35	0xba95f21c	-0.0011439952
36	0x3e8eef68	0.27917027
37	0x3e764cff	0.24052809
38	0xbd31f69e	-0.043448083
39	0x3e6e53e2	0.23274186
40	0x3e2be661	0.16787101
41	0x3d5480dd	0.051880706
42	0xbde09f23	-0.10967853
43	0xbdf9e359	-0.12201566
44	0x3ec08e53	0.37608585
45	0x3c33bdea	0.010970572
46	0xbe8edafe	-0.27901453
47	0xbe807b32	-0.2509399
48	0xbd7d09b3	-0.061776828
49	0x3d732e08	0.05937007
50	0x3eb2c021	0.34912208
51	0xbebab19e	-0.36463636
52	0xbe8009f2	-0.25007588
53	0xbd1d00b5	-0.038330752
54	0x3dccadb1	0.099940665
55	0xbe545b6c	-0.20738
56	0x3e6f3736	0.23360905
57	0xbe3642ec	-0.17798966
58	0xbe9b577f	-0.30340192
59	0x3eac5fa7	0.33666727
60	0x3e3a774b	0.18209569
61	0xbe6b59f3	-0.22983532
62	0x3e882c95	0.26596513
63	0x3db6d02a	0.08926423
64	0x3ed18789	0.40923718
65	0x3cfbdd14	0.030745067
66	0xbdc08578	-0.09400457
67	0xbe8bba5f	-0.27290627
68	0x3e87f096	0.2655074
69	0x3e43330b	0.1906244
70	0x3ebc4258	0.36769366
71	0xbe4525b9	-0.19252671
72	0xbe3949ed	-0.18094607
73	0xbde3f514	-0.11130729
74	0x3e63e6b9	0.22255982
75	0xbe25afd5	-0.16180356
76	0xbed2b48c	-0.4115337
77	0x3e50e799	0.20400847
78	0xbbd3fe21	-0.0064695035
79	0xbe8bd9ef	-0.27314708
80	0x3dcf5710	0.10124028
81	0x3da9ae66	0.08285217
82	0x3cdade4e	0.026717331
83	0x3e5150c8	0.20440972
84	0xbe2e1ee6	-0.17003974
85	0xbe71ebe9	-0.23625149
86	0x3e024f5d	0.12725587
87	0x3e285902	0.16440204
88	0x3f1135ac	0.5672252
89	0x3e25b0b7	0.16180693
90	0xbc697f62	-0.014251562
91	0xbf07e1e6	-0.5307907
92	0x3e5da506	0.21644983
93	0xbccf89c7	-0.025334252
94	0x3e8e7e49	0.27830723
95	0x3e82345b	0.2543057
96	0xbe83413d	-0.2563571
97	0xbe06698f	-0.13126205
98	0xbe84274b	-0.25811228
99	0x3e0c1064	0.13678128
100	0x3d2b79e6	0.0418643
101	0xbe40342f	-0.18769906
102	0xbd936783	-0.07197478
103	0x3d578d8b	0.05262522
104	0x3c0a5b3e	0.008444605
105	0x3e3e55bc	0.18587393
106	0xbe7c111b	-0.246159
107	0xbdaea3cb	-0.08527335
108	0x3bc7da24	0.0060990024
109	0xbe34b75b	-0.1764807
110	0xbc104d15	-0.00880744
111	0xbdc0a9c1	-0.09407378
112	0x3dbf4528	0.093393624
113	0xbe2a78b8	-0.16647613
114	0x3e2e5176	0.17023262
115	0xbe4194dd	-0.18904443
116	0x3d259521	0.040425424
117	0x3e1926ba	0.1495618
118	0xbf201d8f	-0.625451
119	0x3e156481	0.1458912
120	0x3e384eb4	0.17998773
121	0xbcbe8f36	-0.023261648
122	0x3e5d65be	0.21620843
123	0x3e873b96	0.26412648
124	0xbdc0722c	-0.093967766
125	0xbe997b33	-0.29976806
126	0xbe0556d9	-0.13021411
127	0x3cf76e74	0.030204035
128	0x3e99bea8	0.30028272
129	0xbd117d60	-0.035519958
130	0x3e6e0ac5	0.23246296
131	0x3e90f9f4	0.283157
132	0x3d34db7f	0.04415464
133	0x3d805d7b	0.0626783
134	0xbd0b2444	-0.033970132
135	0xbd429838	-0.04750845
136	0x3e39a313	0.18128614
137	0xbe8c7cab	-0.27438864
138	0x3e0f8c58	0.1401838
139	0xbda4c8ff	-0.080461495
140	0x3c515114	0.012775678
141	0x3c52c211	0.012863652
142	0xbe38279b	-0.17983858
143	0xbd48b059	-0.048996303
144	0x3ef36c4c	0.4754356
145	0xbeed7087	-0.46374914
146	0xbda79910	-0.08183491
147	0xbe3db2b3	-0.185252
148	0xbebd6d78	-0.3699758
149	0xbd7f9cdf	-0.062405463
150	0x3e8cc761	0.27495864
151	0xbe0c7ec8	-0.13720238
152	0x3db3eb81	0.08785153
153	0x3eae19a9	0.34003952
154	0xbcb4c222	-0.022065226
155	0xbd7ce264	-0.06173934
156	0xbdc5321a	-0.09628697
157	0xbdfef059	-0.124481864
158	0xbe280473	-0.16407947
159	0xbea9f183	-0.3319207
160	0xbe0453e1	-0.12922622
161	0x3e3249c4	0.17410952
162	0x3e4c98f7	0.19980226
163	0x3e9f9b84	0.31173337
164	0x3e9b7604	0.30363476
165	0xbc7b2207	-0.015327937
166	0x3e1b950c	0.15193576
167	0xbdb76bdb	-0.08956119
168	0x3e392ed9	0.18084277
169	0x3ddde6a5	0.108350076
170	0x3da5ed11	0.081018575
171	0x3dccb7ec	0.09996018
172	0xbe867ef7	-0.2626874
173	0x3d194794	0.037421778
174	0x3e9c589d	0.30536357
175	0xbe9b8e6e	-0.30382103
176	0x3cf810a3	0.03028137
177	0xbed67185	-0.41883484
178	0x3edd54dc	0.43228805
179	0x3bd58ce3	0.006517039
180	0x3e8f9ca9	0.2804921
181	0x3dfb1ddf	0.12261557
182	0x3ef78b4c	0.48348463
183	0xbe31a546	-0.17348203
184	0x3d63ec50	0.055645287
185	0xbd9684b8	-0.07349533
186	0x3d8b7c93	0.0681087
187	0xbebf6ceb	-0.37387785
188	0x3e8d1c41	0.2756062
189	0x3da3ace9	0.07991964
190	0x3c886984	0.016651876
191	0x3d64da49	0.055872235
192	0x3eb54490	0.35403872
193	0x3f03af45	0.51439315
194	0xbd586455	-0.05283006
195	0xbdbcd5ab	-0.092204414
196	0xbdfe85ef	-0.124278896
197	0xbd23e455	-0.040012676
198	0x3e9b9189	0.30384472
199	0x3ddbaba1	0.10726095
200	0x3ee65b7d	0.44991675
201	0x3be82f23	0.0070856973
202	0xbe970072	-0.29492527
203	0xbeb39bc4	-0.35079777
204	0x3da9ab34	0.082846075
205	0x3d875816	0.06608598
206	0xbcf11fee	-0.02943417
207	0x3e811c4d	0.25216904
208	0x3ca10d82	0.019659761
209	0xbadbdbae	-0.0016773844
210	0xbe973c08	-0.29537988
211	0xbbd4f15b	-0.0064984984
212	0x3db1659d	0.08661959
213	0x3dc924e5	0.0982149
214	0x3eb5b279	0.35487726
215	0xbe97196e	-0.2951159
216	0x3d363d8c	0.04449229
217	0x3dfbe884	0.12300208
218	0xbe0c26e2	-0.13686708
219	0xbe297edf	-0.16552304
220	0x3e29c934	0.16580659
221	0xbdf1ba97	-0.11803167
222	0xbe01bac2	-0.12668899
223	0xbebf203f	-0.3732929
224	0xbea84f5f	-0.32873055
225	0x3ee40a34	0.44539034
226	0xbea2c815	-0.31793275
227	0xbdc711b1	-0.09720171
228	0x3e630bcc	0.22172469
229	0xbc0a1914	-0.008428831
230	0x3d61058a	0.054936923
231	0xbd83ede9	-0.06441862
232	0x3e750628	0.2392813
233	0x3be46ba0	0.0069708377
234	0x3edcff04	0.4316331
235	0x3da9749d	0.08274195
236	0xbed819d5	-0.42207208
237	0x3c6052fb	0.013691659
238	0xbe29b917	-0.16574512
239	0xbe221b6e	-0.15830776
240	0xbedb05de	-0.42777914
241	0xbeb1832f	-0.34670398
242	0x3e8b9355	0.27260843
243	0xbe83cc36	-0.25741738
244	0xbec62cde	-0.38706106
245	0xbd15b294	-0.03654726
246	0xbe7afa47	-0.24509536
247	0x3e90b6a2	0.28264338
248	0x3e41545e	0.1887984
249	0xbdbea1f0	-0.09308231
250	0x3f1b2cf8	0.6061549
251	0xbdcadcca	-0.099053934
252	0xbe21349a	-0.15742722
253	0x3e9af516	0.3026511
254	0xbe3381b6	-0.1752995
255	0xbe3ce77b	-0.18447678

layer1.0.bn2.weight f4 [20]
0	0x3f7f2411	0.9966441
1	0x3f881f83	1.0634617
2	0x3f6a1a33	0.91446227
3	0x3f87a100	1.0596008
4	0x3f90410e	1.1269853
5	0x3f843233	1.032782
6	0x3f543076	0.82886446
7	0x3f5f6cca	0.87275374
8	0x3f5fe13f	0.87453073
9	0x3f910b2b	1.1331533
10	0x3f874d95	1.0570551
11	0x3f763de9	0.9618822
12	0x3f58fdf1	0.84762484
13	0x3f6baa52	0.92056763
14	0x3f55ac8f	0.8346643
15	0x3f788358	0.97075415
16	0x3f80be94	1.005816
17	0x3f52cb98	0.8234191
18	0x3f631adc	0.8871286
19	0x3f8cd9d1	1.1003972

layer1.0.bn2.bias f4 [20]
0	0x3d727bf8	0.059200257
1	0x3d84c7d7	0.06483429
2	0x3e84a63c	0.25908077
3	0x3dd344ac	0.103158325
4	0xbdddab2e	-0.108236656
5	0x3d9dc5c0	0.077037334
6	0xbd666fe9	-0.05625907
7	0x3e14608f	0.14489959
8	0x3e410247	0.18848525
9	0xbdb5be7a	-0.08874221
10	0x3da6108d	0.081086256
11	0xbd16ed2c	-0.03684728
12	0x3e8135dd	0.25236407
13	0x3e7d7a00	0.2475357
14	0x3eabc8a9	0.3355153
15	0x3e477baa	0.19480768
16	0x3d914b55	0.070944466
17	0x3e03bee5	0.12865789
18	0x3e7f2bbe	0.2491903
19	0x3dfeae2b	0.12435564

layer1.0.bn2.running_mean f4 [20]
0	0xbf81c445	-1.0138022
1	0x3c8b64bd	0.01701581
2	0x3f202c5a	0.62567675
3	0x3ed9be0d	0.4252781
4	0xbdac7cfb	-0.08422276
5	0x3f74f6de	0.9568919
6	0xbee952b6	-0.45570916
7	0xbee9255f	-0.45536324
8	0x3e1a82cc	0.15088958
9	0x3c66d0da	0.01408788
10	0x3f16665a	0.58749926
11	0x3fcef3ba	1.616813
12	0xbba4192e	-0.0050078845
13	0xbf16c0f2	-0.5888816
14	0xbfa20836	-1.2658756
15	0x3fa10db7	1.258231
16	0xbf847c48	-1.0350428
17	0x3f133a77	0.57511085
18	0x3e464296	0.19361338
19	0x3ea582ad	0.3232626

layer1.0.bn2.running_var f4 [20]
0	0x3fc9e915	1.5774256
1	0x3f98ba2d	1.1931816
2	0x3fa0438c	1.2520614
3	0x3fc3de49	1.5302211
4	0x3ffcf531	1.9762326
5	0x400a617c	2.1622
6	0x3fef87bf	1.8713301
7	0x40182152	2.3770337
8	0x3f2e6ee9	0.68137985
9	0x4006dd54	2.1072588
10	0x3fab0081	1.3359529
11	0x3f8969a7	1.0735368
12	0x3fa5f992	1.2966788
13	0x3f1327b8	0.5748248
14	0x400468e8	2.068903
15	0x3fb8cebf	1.4438094
16	0x3fdd4691	1.728716
17	0x3f80fce4	1.0077176
18	0x400a5d1a	2.1619325
19	0x40073d18	2.1131039

layer1.0.conv3.weight f4 [20, 20, 1]
0	0x3d9d1843	0.07670643
1	0xbe361c62	-0.17784265
2	0xbef35460	-0.4752531
3	0xbf5df4cd	-0.8670166
4	0xbca26c1f	-0.019826947
5	0x3dc01f62	0.09380986
6	0xbeaceda5	-0.33775058
7	0xbe2a3891	-0.16623141
8	0x3f08bbd2	0.5341159
9	0xbe871b24	-0.26387894
10	0xbf02e587	-0.5113148
11	0x3daeea0c	0.08540735
12	0x3d515734	0.051108554
13	0x3cac0f23	0.021003311
14	0xbe15dbe7	-0.14634667
15	0xbe431925	-0.1905256
16	0xbe9c0230	-0.3047042
17	0x3d41d611	0.04732329
18	0xbe3f3e6b	-0.18676154
19	0xbe35c6e0	-0.17751646
20	0x3cff3cd7	0.03115694
21	0x3eaef762	0.34173113
22	0x3d270ee7	0.040785696
23	0xbeb82d7a	-0.35972196
24	0xbe08af94	-0.13348228
25	0xbf18b38e	-0.5964898
26	0x3dc55fe3	0.096374296
27	0xbea60c32	-0.3243118
28	0x3e07717e	0.13226888
29	0xbcdad293	-0.026711738
30	0xbe9076c0	-0.282156
31	0x3dc64bf3	0.09682455
32	0xbd296d02	-0.041363724
33	0xbebb6fcf	-0.3660874
34	0xbeca6144	-0.39527333
35	0xbc1b217f	-0.009468435
36	0xbeda9ae9	-0.42696312
37	0xbf0817c0	-0.5316124
38	0x3ef13de8	0.47117543
39	0xbf91b596	-1.1383541
40	0xbe013ba3	-0.12620406
41	0xbddb5662	-0.107098356
42	0xbeb1a5c8	-0.34696794
43	0x3e84618f	0.2585568
44	0x3e5481f0	0.20752692
45	0xbdcf8577	-0.10132878
46	0x3eb56980	0.35432053
47	0x3f4705e0	0.7774334
48	0x3eb610f5	0.35559812
49	0x3d4d71bd	0.050157297
50	0xbe2b1c8e	-0.16710111
51	0x3c70fafd	0.014708278
52	0x3d5cf9dd	0.053949226
53	0xbe247dec	-0.1606366
54	0xbeeaedb5	-0.4588448
55	0xbead54a1	-0.3385363
56	0xbcd59240	-0.026070714
57	0x3e95e0ac	0.29272974
58	0xbeaba2cb	-0.3352264
59	0x3f43d464	0.7649596
60	0xbe1db6d5	-0.15401776
61	0xbe3a6acd	-0.18204804
62	0xbe503d47	-0.20335875
63	0x3e1693dd	0.14704843
64	0x3cfb9915	0.030712644
65	0x3f0d9de3	0.5531904
66	0xbef642b8	-0.48097777
67	0x3f31a3a9	0.6939035
68	0xbe4da1a6	-0.20081195
69	0x3d93c5cf	0.07215463
70	0xbcf931d6	-0.030419271
71	0x3da3c90c	0.07997331
72	0xbdb998be	-0.090623364
73	0xbe378f57	-0.17925774
74	0x3c92df4f	0.017928747
75	0xbebf9cc3	-0.37424287
76	0x3cdd9f22	0.02705342
77	0x3e00b417	0.12568699
78	0x3d3737ea	0.04473106
79	0x3ef062cb	0.46950373
80	0x3e482c8f	0.19548248
81	0xbf0079ef	-0.50186056
82	0xbe95121c	-0.2911538
83	0xbe6b129e	-0.2295632
84	0x3eb2c439	0.3491533
85	0x3db8d81d	0.09025595
86	0x3e96542c	0.29361093
87	0x3f07bcad	0.5302227
88	0xbeb68c7a	-0.3565405
89	0x3f3aa47c	0.72907233
90	0x3e64b8fb	0.2233619
91	0xbed40506	-0.41410083
92	0xbe840beb	-0.25790343
93	0x3e65ef1a	0.22454491
94	0x3f1cd9f6	0.6127008
95	0xbdc0a768	-0.0940693
96	0xbed3e9be	-0.4138927
97	0xbe256438	-0.16151512
98	0xbeb66c9a	-0.3562973
99	0x3de6cf7c	0.11270043
100	0xbe8da382	-0.2766381
101	0xbe05246d	-0.13002177
102	0x3e8ef80a	0.27923614
103	0x3eb2429b	0.3481644
104	0xbd393fcb	-0.045226853
105	0xbcba731d	-0.022759968
106	0xbeaa040b	-0.3320621
107	0x3e0138f1	0.12619378
108	0xbedcbbc6	-0.4311201
109	0x3f192c89	0.5983358
110	0xbd2bf6fb	-0.041983586
111	0x3c0604dd	0.00817987
112	0x3e34ae0f	0.17644523
113	0x3e47c3aa	0.19508234
114	0x3df35522	0.11881472
115	0xbe1184af	-0.14210771
116	0x3dd84c56	0.10561435
117	0x3f1cf173	0.6130592
118	0x3e8d7a5d	0.27632418
119	0x3d4afc45	0.04955699
120	0x3dade81e	0.084915385
121	0x3eaf3ab9	0.3422449
122	0x3ef2259c	0.4729432
123	0xbe2cd1ae	-0.16876861
124	0xbe5c4bf8	-0.21513355
125	0xbeaf07eb	-0.34185728
126	0x3e810fe3	0.25207433
127	0xbe7dc753	-0.24783067
128	0xbdf860df	-0.12127852
129	0x3d107296	0.035265528
130	0x3f440acf	0.7657899
131	0xbe69f9ca	-0.22849193
132	0x3d80c437	0.06287425
133	0xbde9446e	-0.11390005
134	0x3ea69707	0.325371
135	0x3f23c84c	0.63977504
136	0x3e574734	0.21023256
137	0xbe0999b7	-0.13437544
138	0xbea23b72	-0.31685978
139	0xbd97865e	-0.073986754
140	0x3e3e70f9	0.18597783
141	0x3e669e14	0.2252124
142	0xbea43b4a	-0.32076484
143	0xbca53baa	-0.020170052
144	0x3f2aefc9	0.66772133
145	0xbe3e3f9e	-0.18578956
146	0x3ef2e366	0.47439116
147	0x3e5624e3	0.20912509
148	0xbe0dc070	-0.1384294
149	0xbd6267df	-0.05527484
150	0x3f254116	0.6455244
151	0x3dd23410	0.102638364
152	0xbea4fa69	-0.32222298
153	0x3d3279d1	0.043573204
154	0xbeba6677	-0.364063
155	0x3c2a16a7	0.010381377
156	0xbe44419d	-0.19165654
157	0xbea335bf	-0.31876943
158	0xbd24d87d	-0.04024552
159	0xbec33a2d	-0.38130322
160	0xbe2ed01f	-0.1707158
161	0xbef75632	-0.4830795
162	0x3d9174a2	0.07102324
163	0xbe3fc6f1	-0.18728234
164	0x3c80de96	0.015731137
165	0xbe6a66c0	-0.22890759
166	0x3e9ad557	0.3024089
167	0xbe3fe4e5	-0.1873966
168	0x3ed82244	0.42213643
169	0x3f794bd8	0.97381353
170	0x3e5cd863	0.2156692
171	0xbbca8f8b	-0.0061816624
172	0x3e61500b	0.2200319
173	0xbdfefc2f	-0.12450444
174	0xbeb03bcd	-0.34420624
175	0xbf01e0f1	-0.5073386
176	0x3ddc770c	0.10764894
177	0xbe5a4274	-0.21314412
178	0x3e1a7da0	0.15086985
179	0xbeb8ca63	-0.3609191
180	0x3ecc2834	0.39874423
181	0xbeda95ff	-0.42692563
182	0xbd057d02	-0.03258992
183	0x3e2cd0d1	0.16876532
184	0x3e7721d2	0.24133995
185	0x3ee8759b	0.45402226
186	0xbe495b27	-0.19663678
187	0xbe154a79	-0.1457919
188	0x3ed4f93c	0.415964
189	0xbd935466	-0.07193832
190	0xbc67b4b6	-0.014142206
191	0x3eb703e4	0.35745156
192	0x3cc08b22	0.023503844
193	0xbe8604b3	-0.2617546
194	0xbe3075dd	-0.17232461
195	0xbe6c505f	-0.23077534
196	0x3f03aef5	0.5143884
197	0xbc942d21	-0.018087925
198	0xbd37cbfe	-0.044872276
199	0xbc8e23cf	-0.01735106
200	0x3d5a602b	0.05331437
201	0xbef8d3e3	-0.48599157
202	0xbeaa6ebb	-0.33287606
203	0xbd6f7cb0	-0.05846852
204	0x3ed71647	0.42009184
205	0xbea82d5b	-0.32847103
206	0x3e1cfa97	0.15329967
207	0xbe9e3128	-0.30896878
208	0xbec6635a	-0.38747674
209	0xb9e36427	-0.00043371433
210	0x3f2005de	0.6250895
211	0x3e1b4391	0.15162493
212	0x3ed71b99	0.42013243
213	0xbf1fcac3	-0.62418765
214	0xbe6e730a	-0.23286071
215	0x3ebe08cc	0.37116086
216	0xbde129fd	-0.10994337
217	0x3e62a6f7	0.22134005
218	0xbe3cc598	-0.18434751
219	0xbeb0dc3e	-0.3454303
220	0x3f33861a	0.701265
221	0x3e40c897	0.18826519
222	0x3e9edfa6	0.31030005
223	0xbea8cbea	-0.32968074
224	0xbe511775	-0.20419104
225	0xbd762d98	-0.060102075
226	0x3ec58535	0.3857819
227	0xbf14e77a	-0.58165705
228	0xbe802d99	-0.25034788
229	0x3e6d7058	0.23187387
230	0xbe9c631b	-0.3054436
231	0xbe03a660	-0.12856436
232	0xbec794ac	-0.38980615
233	0x3d9aade1	0.07552696
234	0x3db0f56b	0.0864056
235	0x3e96958e	0.29410976
236	0x3e788caf	0.24272417
237	0x3edb3d7a	0.4282034
238	0x3f10791d	0.56434804
239	0xbe08840b	-0.1333162
240	0xbebdafe1	-0.37048247
241	0x3ec22205	0.3791658
242	0xbd86658b	-0.065623365
243	0x3d777c19	0.060421083
244	0xbe17436e	-0.14771816
245	0x3d7875ab	0.060659092
246	0xbed1077e	-0.4082603
247	0x3e29fee5	0.16601141
248	0x3ecfc84c	0.40582502
249	0xbd73ee32	-0.059553333
250	0xbea4a1f6	-0.32154816
251	0x3e86932f	0.26284167
252	0xbd8286cc	-0.06373367
253	0x3e317c62	0.17332605
254	0x3b0e0f92	0.002167676
255	0x3d7d4730	0.061835468

layer1.0.bn3.weight f4 [20]
0	0x3f6cc209	0.92483574
1	0x3f5d7bee	0.86517227
2	0x3faa9bfa	1.332885
3	0x3f47dfc3	0.7807581
4	0x3f1d764a	0.6150862
5	0x3f48a826	0.78381574
6	0x3f823458	1.0172224
7	0x3f6d2ddd	0.92648107
8	0x3f60d276	0.8782114
9	0x3f52faef	0.82414144
10	0x3f37d5cd	0.7181061
11	0x3f6c3e35	0.9228242
12	0x3f9278a1	1.1443063
13	0x3f56f1c9	0.83962685
14	0x3f4b54c4	0.7942622
15	0x3f905e88	1.1278849
16	0x3f35dacb	0.71036977
17	0x3f7c4349	0.9854017
18	0x3f7d237f	0.9888229
19	0x3f780136	0.9687685

layer1.0.bn3.bias f4 [20]
0	0x3c0d5aa6	0.008627569
1	0x3e016845	0.12637432
2	0x3eca6856	0.39532727
3	0x3e1a5525	0.15071543
4	0xbda20090	-0.079102635
5	0xbdea7391	-0.11447824
6	0x3f17add7	0.59249634
7	0x3d56d62a	0.052450337
8	0x3e82f1e8	0.25575185
9	0xbc4c989a	-0.012487555
10	0x3da0aa05	0.07844929
11	0x3d9afb3c	0.075674504
12	0xbe3cd686	-0.18441209
13	0x3dd9b7c1	0.106307514
14	0x3de380f5	0.11108581
15	0xbda6fc69	-0.08153612
16	0x3e8c9780	0.27459335
17	0x3e443698	0.19161451
18	0xbe7c1c9a	-0.24620286
19	0x3e93ce07	0.28868124

layer1.0.bn3.running_mean f4 [20]
0	0xbf9fd40c	-1.2486587
1	0xbfc594c9	-1.5436031
2	0x3e7e87b4	0.24856454
3	0x3e666547	0.22499572
4	0x3d8150cb	0.06314238
5	0x3f36b679	0.7137218
6	0x3f06ccc9	0.5265623
7	0xbe338e1d	-0.1753468
8	0xbea38bd2	-0.31942612
9	0x3ea19681	0.31560138
10	0xbf270e20	-0.6525593
11	0x3ef33ef3	0.47508964
12	0x3ebd4b9e	0.36971754
13	0xbeb97f7f	-0.36230084
14	0x3eef7a4c	0.46772993
15	0xbe97ee1c	-0.2967385
16	0xbdf4f8c6	-0.11961512
17	0x3f1b1148	0.60573244
18	0x3c7065f8	0.014672749
19	0x3fca0843	1.5783771

layer1.0.bn3.running_var f4 [20]
0	0x3f8fab1a	1.1224091
1	0x3fe2b927	1.7712754
2	0x3f88ae04	1.0678105
3	0x3f0f4be9	0.55975205
4	0x3f0b08e1	0.54310423
5	0x3ee78446	0.45218104
6	0x3f58cf86	0.84691656
7	0x3f33163e	0.69955814
8	0x3f1db9e7	0.6161179
9	0x3f643a7d	0.89151746
10	0x3f2277b0	0.6346388
11	0x3f4e77de	0.8065165
12	0x3ed1b51a	0.40958482
13	0x3f5db134	0.86598516
14	0x3f150ef7	0.5822596
15	0x3f0d1099	0.5510345
16	0x3f91b83c	1.1384349
17	0x3f7d367f	0.9891128
18	0x3ef50b0d	0.47859994
19	0x3f812428	1.0089159

layer1.1.conv1.weight f4 [20, 20, 1]
0	0xbe123a8d	-0.14280148
1	0xbe82dce2	-0.25559145
2	0x3cc72079	0.024307476
3	0x3d9cb6bd	0.07652042
4	0xbe190557	-0.14943443
5	0xbcda6b3f	-0.026662467
6	0x3dbb87fd	0.09156797
7	0xbd729679	-0.059225533
8	0xbf0f52ce	-0.55985725
9	0xbe0758ff	-0.13217543
10	0xbe85850d	-0.26078072
11	0x3eae4a80	0.34041214
12	0x3d16e9aa	0.036843933
13	0xbd992ea5	-0.074796
14	0xbecff196	-0.40614003
15	0xbdaf2b84	-0.08553222
16	0x3c597f0f	0.013274922
17	0xbe9ecfe7	-0.31017992
18	0xbe590768	-0.21194232
19	0x3f15b82e	0.5848416
20	0xbe877034	-0.26452792
21	0x3d942cad	0.07235084
22	0xbf51310e	-0.81715477
23	0xbc4742e9	-0.012161949
24	0x3e1ce18e	0.15320417
25	0xbe4074b6	-0.18794522
26	0x3e113eaa	0.1418406
27	0x3ed52f8f	0.41637847
28	0x3e013f84	0.12621886
29	0xbeace761	-0.33770278
30	0xbe899c7b	-0.26877198
31	0xbd1d1b8c	-0.03835635
32	0x3d0d279a	0.034461595
33	0xbe92cad6	-0.28670377
34	0xbe22c1fd	-0.15894313
35	0x3e591a73	0.21201496
36	0xbd2b5255	-0.041826565
37	0x3ea5fd3a	0.3241976
38	0xbeb6eded	-0.35728398
39	0x3e98ca00	0.29841614
40	0xbe7132a9	-0.23554482
41	0xbf395531	-0.72395617
42	0x3e09731f	0.13422821
43	0x3f07e70e	0.53086936
44	0x3e6a311f	0.228703
45	0x3e7dcb5c	0.24784607
46	0xbf13fb9a	-0.5780579
47	0x3f614460	0.87994957
48	0xbed5154b	-0.41617808
49	0x3f064300	0.52445984
50	0x3e9da8b7	0.30792782
51	0xbdcbe61c	-0.09955999
52	0x3d841dea	0.06451018
53	0x3db0d487	0.086342864
54	0x3ecc4dfe	0.39903253
55	0x3d7d58b6	0.06185218
56	0xbeb90e85	-0.3614389
57	0x3ed861b3	0.4226204
58	0x395a1eab	0.00020801525
59	0xbeff989a	-0.49921113
60	0x3d93091d	0.071794726
61	0xbebb14cf	-0.36539313
62	0x3eab23a9	0.33425644
63	0x3d361a42	0.044458635
64	0x3e6380b7	0.2221707
65	0xbe20b5ed	-0.15694399
66	0x3e666b07	0.22501765
67	0x3e666bf6	0.22502121
68	0x3cf0f45b	0.029413393
69	0x3eda53db	0.42642102
70	0x3d03a474	0.032139257
71	0x3e5350d7	0.20636307
72	0xbef85ea3	-0.48509702
73	0xbe4ca6ff	-0.19985579
74	0xbed5b87c	-0.41742313
75	0x3dafa864	0.0857704
76	0x3ea42d54	0.32065833
77	0xbef1563d	-0.47136107
78	0xbe025d84	-0.12730986
79	0x3eb85314	0.36000884
80	0xbe5bfced	-0.21483202
81	0x3ea3aaa8	0.31966138
82	0x3f069d28	0.5258355
83	0xbdddbd49	-0.10827119
84	0x3dcb9002	0.09939577
85	0x3e140c2b	0.14457767
86	0x3edbbbd8	0.4291675
87	0x3e310ec4	0.17290789
88	0xbdd76001	-0.10516358
89	0xbcb28fd1	-0.021797093
90	0x3eb66a40	0.35627937
91	0xbecc97de	-0.39959615
92	0xbf02ae86	-0.5104755
93	0xbedf7ed9	-0.43651465
94	0x3ed65068	0.4185822
95	0xbe27d03c	-0.16388029
96	0x3e82473e	0.25444978
97	0x3edb9d81	0.42893603
98	0x38e06253	0.00010699467
99	0xbe81b613	-0.25334224
100	0xbe875fbc	-0.26440227
101	0x3f1a6a66	0.603186
102	0xbef7edd2	-0.4842363
103	0x3ea48d8a	0.32139236
104	0x3ddcaa9a	0.10774727
105	0x3e921248	0.28529572
106	0xbea81627	-0.328294
107	0xbe52d4a7	-0.20588933
108	0xbe84138c	-0.25796163
109	0xbf825769	-1.0182925
110	0xbe3104fc	-0.17287058
111	0x3da7fa40	0.08202028
112	0x3e1ffe9c	0.1562447
113	0x3f0d5402	0.5520631
114	0xbdf8c37d	-0.121466614
115	0xbcc54da3	-0.024084872
116	0xbe21f927	-0.158177
117	0xbef942cb	-0.48683771
118	0xbe31a62b	-0.17348544
119	0x3c6fb160	0.014629692
120	0x3e651ebd	0.22375007
121	0xbf295764	-0.6614897
122	0x3e6430dd	0.22284265
123	0xbd8e39d2	-0.06944622
124	0x3e087821	0.13327076
125	0x3f45f8aa	0.77332556
126	0x3f2eea85	0.683266
127	0xba114699	-0.0005541831
128	0x3e2887ac	0.16458005
129	0xbe6b16aa	-0.22957864
130	0xbe8f93be	-0.28042406
131	0x3dc370a0	0.09542966
132	0xbe056ca7	-0.13029729
133	0x3ed9c023	0.425294
134	0x3d0bf692	0.034170695
135	0xbf0f66ed	-0.5601643
136	0xbf044949	-0.51674324
137	0x3dbf8d7b	0.09353157
138	0x3eafea16	0.3435828
139	0xbeaf3100	-0.34217072
140	0xbe7e3516	-0.24824938
141	0xbebc2731	-0.3674865
142	0xbe5f2ba2	-0.21793988
143	0xbc3916a8	-0.011296906
144	0xbe15ccfb	-0.14628975
145	0x3e9aeec8	0.302603
146	0xbe1da530	-0.15395045
147	0xbea81e8f	-0.32835814
148	0x3ecce42b	0.40017828
149	0xbec9f08b	-0.39441332
150	0xbf0d8cfd	-0.55293256
151	0xbe6e27a9	-0.23257317
152	0xbf0aa01e	-0.5415057
153	0xbe8e8bf9	-0.27841166
154	0x3e61fc51	0.22068907
155	0x3b80e955	0.0039340653
156	0xbe97d40e	-0.29653972
157	0xbe925579	-0.28580835
158	0xbe01ba4c	-0.12668723
159	0xbf1ea61e	-0.61972225
160	0x3e8fceaa	0.2808736
161	0xbe33b654	-0.17550021
162	0xbde8aedd	-0.113614775
163	0xbe71e127	-0.23621045
164	0x3bfb91b3	0.007677281
165	0xbe52afa6	-0.20574817
166	0x3ed80e79	0.42198542
167	0x3c6feeb6	0.0146443155
168	0xbf3383b0	-0.70122814
169	0xbe80b22a	-0.25135928
170	0x3ee4c6a5	0.44682804
171	0x3f1ce1aa	0.61281836
172	0x3efb2e2d	0.49058667
173	0xbe30c299	-0.17261733
174	0x3e7550cb	0.23956601
175	0x3debd2ee	0.11514841
176	0xbd274218	-0.040834516
177	0xbf0fe083	-0.5620195
178	0x3ed5bcf7	0.4174573
179	0x3e0b1f30	0.13586116
180	0x3ee85884	0.45380032
181	0x3e140cc2	0.14457992
182	0x3e9f21a2	0.31080347
183	0xbeadf676	-0.33977097
184	0x3dcf2ec4	0.10116342
185	0x3eccfab3	0.40035018
186	0xbdb4b8d9	-0.088243194
187	0xbed5f497	-0.4178817
188	0xbc430556	-0.011903128
189	0x3c758485	0.014985208
190	0x3e6526f2	0.22378138
191	0xbf489878	-0.7835765
192	0xbc873bdf	-0.016508041
193	0x3dba91f0	0.091098666
194	0x3c28c45c	0.010300722
195	0xbe288c26	-0.16459712
196	0xbef220a6	-0.47290534
197	0x3f0259db	0.5091836
198	0xbd2064b1	-0.039158527
199	0xbf09f957	-0.5389609
200	0xbd6aa3de	-0.057285182
201	0x3e7d3955	0.24728902
202	0x3eabfa68	0.33589482
203	0x3e5ab7bb	0.2135915
204	0xbead017b	-0.33790192
205	0xbde5498a	-0.11195667
206	0xbe7b7472	-0.24556139
207	0x3f62eef3	0.8864586
208	0xbd668388	-0.05627778
209	0x3f0ff7f3	0.56237715
210	0xbdce47df	-0.10072302
211	0x3e91de33	0.28489837
212	0xbd955a68	-0.07292634
213	0x3e95b840	0.29242134
214	0xbebf18a7	-0.37323496
215	0xbe885921	-0.266305
216	0xbe05d52a	-0.13069597
217	0xbde23d8d	-0.11046896
218	0xbeccdbc2	-0.40011412
219	0x3eb8308c	0.35974538
220	0xbf50a21d	-0.81497365
221	0xbddb514c	-0.107088655
222	0x3dcb4d3d	0.099268414
223	0xbe95dd8c	-0.2927059
224	0xbea81cf0	-0.32834578
225	0x3d9aa060	0.0755012
226	0x3c156a29	0.009119549
227	0x3e673262	0.22577813
228	0x3e351350	0.17683148
229	0xbf3bad92	-0.7331172
230	0x3e8d6d26	0.27622336
231	0x3ebaf773	0.36516914
232	0xbec04740	-0.3755436
233	0x3e26c9d8	0.16287935
234	0x3e1f705a	0.15570202
235	0x3ece5ab3	0.40303573
236	0xbe08b8b1	-0.13351704
237	0xbe150258	-0.14551675
238	0xbe67a0c3	-0.2261992
239	0xbf252fb1	-0.64525896
240	0xbf0962c0	-0.53666306
241	0xbe832971	-0.25617555
242	0xbe24b193	-0.16083364
243	0x3d99e535	0.07514421
244	0x3f0485cb	0.5176665
245	0xbe195225	-0.14972742
246	0xbd4ef751	-0.050528828
247	0xbe0949be	-0.13407037
248	0x3e301317	0.17194782
249	0x3e4358e9	0.19076885
250	0xbef836fd	-0.48479453
251	0x3f02f44a	0.51154006
252	0x3dd70891	0.10499681
253	0x3e0009fa	0.12503806
254	0xbe4b66e9	-0.19863476
255	0x3d419940	0.04726529

layer1.1.bn1.weight f4 [20]
0	0x3fa60015	1.2968775
1	0x3f5a90aa	0.8537699
2	0x3f8b8169	1.0898868
3	0x3f849973	1.0359329
4	0x3f6a2b9b	0.91472787
5	0x3f6d8e79	0.9279552
6	0x3f52832d	0.8223141
7	0x3f5a9bd5	0.8539403
8	0x3f6e9d66	0.9320892
9	0x3f649466	0.8928894
10	0x3f5138cf	0.8172731
11	0x3f6a17e8	0.9144273
12	0x3f6a8bf7	0.9161982
13	0x3f7fffbb	0.9999959
14	0x3f59f398	0.8513732
15	0x3f66d92a	0.90175116
16	0x3f83de34	1.0302186
17	0x3f8f55d4	1.1198068
18	0x3f815790	1.0104847
19	0x3f4a84ce	0.79108894

layer1.1.bn1.bias f4 [20]
0	0xbe63a2c1	-0.22230054
1	0xbd39ca15	-0.045358736
2	0x3dadf965	0.08494834
3	0x3c57ffdc	0.01318356
4	0x3e967d32	0.2939239
5	0x3ead7817	0.33880684
6	0xbafd730d	-0.0019336656
7	0x3cc04892	0.023472104
8	0xbc3239ab	-0.010878007
9	0x3ef7bd0b	0.48386416
10	0x3e1c9395	0.15290673
11	0x3e14d65b	0.14534895
12	0x3e86a28a	0.26295882
13	0x3d85c367	0.06531411
14	0x3dbdc19d	0.092654444
15	0x3c4ad511	0.012379901
16	0x3d2797ab	0.040916126
17	0xbeb5eed8	-0.35533786
18	0x3e0df00b	0.138611
19	0x3dfab00c	0.122406095

layer1.1.bn1.running_mean f4 [20]
0	0xbf60dbab	-0.87835187
1	0xbf0fa40f	-0.5610971
2	0x3e742932	0.2384384
3	0x3ef3cf7c	0.47619236
4	0x3f9113ca	1.1334164
5	0xbfa51d98	-1.2899656
6	0xbe00aad4	-0.12565166
7	0xc053f407	-3.3117692
8	0x3ee77ebb	0.45213875
9	0xbf313f98	-0.6923766
10	0x3f658a75	0.89664394
11	0xbfa4b716	-1.2868373
12	0x3f42ebe2	0.7614118
13	0xbfd33b23	-1.6502422
14	0x3fa27440	1.2691727
15	0xbe37991a	-0.17929497
16	0xbda23eb4	-0.07922116
17	0xbeef587b	-0.46747193
18	0xbe28dbdf	-0.16490124
19	0x3f5fc746	0.8741344

layer1.1.bn1.running_var f4 [20]
0	0x3ffa7ffa	1.9570305
1	0x40143303	2.3156135
2	0x40a6d72e	5.213767
3	0x4088f6e4	4.280138
4	0x4015ebfe	2.3425288
5	0x4095efee	4.6855383
6	0x4003f89b	2.0620487
7	0x408aec0f	4.3413157
8	0x3fef4250	1.8692112
9	0x40a768f9	5.231564
10	0x40480863	3.125512
11	0x401b8eee	2.4305987
12	0x4036de58	2.8573208
13	0x3fc4f55a	1.5387375
14	0x3f884499	1.0645934
15	0x3f23f12a	0.6403986
16	0x404e7fab	3.2265422
17	0x40042e9b	2.0653446
18	0x400c35d7	2.1907861
19	0x3fbd7c44	1.4803548
